model/current_policy_8.model (torch_old, 478651 bytes, 15 tensors)

conv1.weight f4 [32, 4, 3, 3]
0	0x3dd2c70b	0.10291871
1	0x3e05fe46	0.13085279
2	0xbb1c7f9c	-0.0023879772
3	0xbcacc05b	-0.021087816
4	0x3dbca19e	0.092105135
5	0x3e9bf4ce	0.3046021
6	0xbc423334	-0.011853028
7	0x3deeaa90	0.11653626
8	0xbcdb9f15	-0.026809255
9	0x3e648318	0.22315633
10	0xbdb85c8d	-0.09002028
11	0xbcd5c5d0	-0.0260953
12	0x3dd20b81	0.102561004
13	0xbe10e1f6	-0.14148697
14	0x3eb488b8	0.35260558
15	0xbdeaa996	-0.11458127
16	0xbe4d7ca4	-0.20067078
17	0xbc40a2d4	-0.011757571
18	0x3cac08a8	0.021000221
19	0xbd80e138	-0.06292957
20	0x3d5be0bb	0.053681117
21	0x3d685162	0.056718238
22	0x3d124014	0.03570564
23	0xbbeec1a2	-0.0072862664
24	0xbd83c767	-0.06434517
25	0xbc6226d6	-0.0138032045
26	0x3d610744	0.05493857
27	0x3d8a3093	0.06747546
28	0xbdde6243	-0.10858586
29	0xbc9e0657	-0.019290132
30	0xbc015d6b	-0.007895808
31	0x3e0074ef	0.12544607
32	0xbe0a7949	-0.13522829
33	0x3d7f9fcb	0.06240825
34	0xbcd496d8	-0.025950834
35	0x3d033711	0.032034937
36	0x3de26a36	0.110554144
37	0x3afa732b	0.0019107809
38	0xbc12fc96	-0.008971354
39	0x3db1cd5f	0.086817496
40	0xbe3cac73	-0.18425159
41	0x3cd2b50c	0.025721096
42	0x3e6d5f03	0.23180775
43	0x3e4c99fd	0.19980617
44	0x3d41cf6a	0.047316946
45	0xbc45a0a1	-0.012062223
46	0x3d857a04	0.06517413
47	0xbc24556d	-0.010030133
48	0x3e83ec70	0.25766325
49	0xbea53cae	-0.32272857
50	0x3cf65a29	0.030072289
51	0xbd20fa53	-0.039301228
52	0x3e9be75d	0.30449954
53	0x3da46592	0.080271855
54	0x3da0bcd8	0.07848519
55	0xbd02fc3c	-0.03197883
56	0x3dcf3958	0.10118359
57	0x3e0fb506	0.14033899
58	0xbd1c679b	-0.038184743
59	0xbdd88be3	-0.10573556
60	0x3d987de6	0.07445888
61	0x3dbd6aee	0.09248911
62	0x3c3bf684	0.011472348
63	0xbcb3ded5	-0.02195684
64	0xbd0fd469	-0.03511468
65	0xbd7efa64	-0.06225051
66	0x3d9e26ea	0.07722266
67	0xbe08cebf	-0.13360117
68	0xbd904180	-0.07043743
69	0x3dc6faee	0.0971583
70	0x3d14d0cf	0.036331948
71	0x3e0e0212	0.13867977
72	0xbde1c056	-0.11023013
73	0x3d47ac60	0.048748374
74	0x3e5a5a72	0.21323565
75	0x3e0eb9f9	0.1393813
76	0x3e3d9680	0.18514442
77	0xbde26010	-0.11053479
78	0x3ec248ef	0.3794627
79	0xbecb6b1d	-0.39730158
80	0x3ec8b2c4	0.39198887
81	0xbe090aea	-0.1338307
82	0xbe27ae0a	-0.16374984
83	0xbdc556ed	-0.096357204
84	0x3e4d023b	0.20020382
85	0xbed7e742	-0.42168623
86	0x3e5a6001	0.21325685
87	0xbe346bbf	-0.17619227
88	0x3dbc3db9	0.0919146
89	0xbdadc41b	-0.0848467
90	0xbd992dc1	-0.0747943
91	0x3e11a8e2	0.1422458
92	0xbda14b28	-0.07875663
93	0xbc0341c3	-0.008011284
94	0xbc88a730	-0.016681284
95	0xbd6281b9	-0.055299494
96	0xbd8cf7c3	-0.06883194
97	0xbe023785	-0.12716492
98	0xbcc1612c	-0.023605905
99	0x3da205d7	0.0791127
100	0xbde97da1	-0.11400915
101	0xbd0c8431	-0.034305755
102	0x3dab53c1	0.08365584
103	0x3dd7a879	0.105301805
104	0x3c6c047b	0.014405365
105	0x3d6a9d69	0.057279024
106	0xbd904095	-0.07043568
107	0xbd98a88b	-0.07454022
108	0x3df8040a	0.121101454
109	0x3e88cb6e	0.26717705
110	0x3bce4560	0.0062948912
111	0xbea01553	-0.3126627
112	0x3dc8f0a9	0.09811527
113	0xbe7c2efd	-0.246273
114	0xbd0ebf7a	-0.034850575
115	0x3e1bc3c1	0.15211393
116	0xbe5a09a1	-0.21292736
117	0x3d87e3dc	0.066352576
118	0xbe3d786b	-0.18502967
119	0x3ddb2d4b	0.10701998
120	0xbe15ec23	-0.1464086
121	0x3db9ebb6	0.090781614
122	0x3bfa6703	0.0076416745
123	0xbd21f991	-0.039544646
124	0xbc054ea4	-0.008136425
125	0xbe323f7e	-0.17407033
126	0xbd9315c4	-0.07181886
127	0xbe1c79a6	-0.1528078
128	0xbd90d692	-0.07072176
129	0x3e0d67b3	0.1380909
130	0x3ddeac95	0.10872761
131	0x3dac49bf	0.084125035
132	0x3d8e83f9	0.069587655
133	0x3cd24ff8	0.025672898
134	0xbe130a6d	-0.14359446
135	0x3ce25957	0.027630491
136	0x3e010405	0.1259919
137	0xbe334a3a	-0.17508784
138	0x3def7a07	0.11693197
139	0xbc7c741f	-0.015408545
140	0x3b45184f	0.0030074304
141	0x3c8d0f09	0.017219083
142	0xbe25cb4c	-0.16190833
143	0x3d9608f7	0.07325929
144	0x3e0b56b1	0.13607289
145	0x3e0f5c5b	0.14000075
146	0xbdff1683	-0.12455466
147	0xbe94786d	-0.28998128
148	0xbe18993f	-0.14902209
149	0xbe32ebb1	-0.17472722
150	0xbd1c8efa	-0.03822229
151	0xbe6b0e2e	-0.22954628
152	0x3cefaf80	0.02925849
153	0xbe40f4c8	-0.18843377
154	0xbd810348	-0.06299454
155	0xbe9216fb	-0.28533158
156	0x3d8b611f	0.06805634
157	0x3dbeaaf2	0.09309949
158	0x3e4af748	0.19820893
159	0x3e8d967f	0.27653882
160	0x3e7b7453	0.24556093
161	0x3cd2e1e8	0.025742486
162	0xbd10a74b	-0.035315793
163	0x3df0a640	0.1175046
164	0xbc533f26	-0.012893474
165	0x3d0d006c	0.03442423
166	0x3dab3a8e	0.08360778
167	0x3dbdf568	0.09275323
168	0x3d51eb1c	0.05124961
169	0x3daa1e4f	0.08306562
170	0x3dc0a695	0.09406773
171	0x3db032b9	0.086034246
172	0xbe10c772	-0.14138582
173	0xbe2f7a21	-0.17136432
174	0x3dca5965	0.09880332
175	0xbdb4e853	-0.08833375
176	0x3e055556	0.13020834
177	0x3e0f966b	0.14022224
178	0x3d0dc269	0.034609232
179	0x3d735d25	0.059415
180	0xbef75cbb	-0.48312935
181	0x3e9d29dd	0.30696002
182	0x3e8dadd7	0.27671692
183	0x3ecdd613	0.40202388
184	0xbf26d6bb	-0.651714
185	0x3ecd38c8	0.40082383
186	0xbc5c96b9	-0.013463669
187	0x3e8a77cf	0.27044532
188	0xbec4bae0	-0.38423824
189	0x3dc082d1	0.09399951
190	0xbe25a6fd	-0.16176982
191	0xbe3d28fa	-0.18472663
192	0xbe46c7d3	-0.19412164
193	0x3dda8149	0.106691904
194	0xbe7d2364	-0.24720532
195	0x3e1d543e	0.15364167
196	0xbeb5fa76	-0.3554265
197	0x3e0c012d	0.13672324
198	0x3ddfa714	0.109205395
199	0x3dae1803	0.085006736
200	0x3ca016ce	0.019542124
201	0xbd9c6fe9	-0.07638533
202	0x3dc2f3ab	0.09519132
203	0xbd328a9a	-0.043589212
204	0xbda8e6ed	-0.082471706
205	0xbdd72a17	-0.10506075
206	0x3e099c02	0.13438419
207	0x3cbc55a4	0.022990055
208	0xbe058091	-0.13037325
209	0x3d6cb8c5	0.057793397
210	0x3c883bc0	0.016630054
211	0xbcfdf57f	-0.03100085
212	0x3d9c342d	0.07627139
213	0x3c1e27b7	0.009653023
214	0x3cd37233	0.02581129
215	0xbd052ca3	-0.032513272
216	0x3d5bad50	0.05363208
217	0xbeff74dd	-0.49893847
218	0xbcb57edd	-0.02215522
219	0x3ee62cb9	0.44955996
220	0x3d9a061d	0.07520697
221	0x3e608546	0.2192584
222	0x3d56b6f9	0.05242059
223	0xbe31f800	-0.1737976
224	0x3cbb71e4	0.022881456
225	0xbd477104	-0.048691764
226	0x3e81b5ca	0.25334007
227	0x3ca09073	0.019600129
228	0xbead94ef	-0.3390269
229	0x3d6be6c8	0.057593137
230	0xbe8b2c8e	-0.2718243
231	0x3dd17006	0.10226445
232	0x3e31c78b	0.17361276
233	0xbd540704	-0.051764503
234	0xbc03ede9	-0.008052328
235	0x3d4dc7a1	0.05023921
236	0xbdd4d4e0	-0.10392165
237	0x3db27755	0.08714167
238	0x3e1f2bba	0.15544024
239	0xbac86795	-0.0015289659
240	0xbd731701	-0.05934811
241	0x3e1c6155	0.15271504
242	0x3c2d18dd	0.01056501
243	0x3df54776	0.11976521
244	0x3b1d7a70	0.0024029277
245	0x3db1723c	0.086643666
246	0xbdf27bcc	-0.11840019
247	0x3e0572dc	0.13032097
248	0xbdd03175	-0.10165683
249	0xbe3af37e	-0.18256947
250	0x3e080652	0.13283661
251	0xbc546291	-0.012962953
252	0xbd379c11	-0.04482657
253	0x3d811a77	0.06303876
254	0xbc8a3f95	-0.016876021
255	0xbbb95ab3	-0.005656564

conv1.bias f4 [32]
0	0xbd1252e5	-0.035723586
1	0x3e055953	0.13022356
2	0xbd51105e	-0.051041
3	0x3dc6ef00	0.097135544
4	0x3d807f1a	0.06274243
5	0x3e0c9512	0.13728741
6	0xbd9bb1f1	-0.07602299
7	0xbdea1589	-0.11429889
8	0xbd00d3a7	-0.031451847
9	0xbbe358d5	-0.00693808
10	0x3d3e0c86	0.046398662
11	0x3e02dd18	0.12779653
12	0xbda6a08b	-0.0813609
13	0x3dc33eab	0.09533437
14	0xbd357525	-0.04430117
15	0xbd1d9be6	-0.038478754
16	0xbe030bb3	-0.12797432
17	0xbb7e775f	-0.0038828475
18	0xbe2c35e6	-0.16817436
19	0x3e1678f4	0.14694577
20	0xbb5b4e1a	-0.00334633
21	0xbd9e16df	-0.07719206
22	0xbce178b4	-0.027523376
23	0xbc68d423	-0.014210734
24	0xbd461509	-0.048359904
25	0xbe11980f	-0.14218162
26	0x3e19b84f	0.15011714
27	0x3e0873b0	0.13325381
28	0x3dd0076a	0.10157664
29	0x3e1d7719	0.15377463
30	0xbddae01a	-0.10687275
31	0xbdd01af0	-0.10161388

conv2.weight f4 [64, 32, 3, 3]
0	0xbd76855d	-0.06018578
1	0xbe44889f	-0.19192742
2	0xbd7c8082	-0.061645992
3	0xba4d797f	-0.0007838234
4	0x3d663a4f	0.05620795
5	0xbd8e4a9b	-0.069478236
6	0x3e100b11	0.14066721
7	0x3b0da805	0.002161504
8	0x3d0ad4bb	0.03389428
9	0xbd959499	-0.073037334
10	0xbd3dd09c	-0.046341524
11	0xbc5d522d	-0.013508362
12	0x3c2fb2fc	0.010723826
13	0x3d3e5011	0.046463076
14	0xbd10f509	-0.035389934
15	0xbebafbd6	-0.3652026
16	0xbd8513c0	-0.06497908
17	0x3dbe2f43	0.09286358
18	0xbc32bda4	-0.010909472
19	0xbdab6d53	-0.08370461
20	0x3b0da2a5	0.0021611836
21	0xbd7379e4	-0.059442416
22	0xbd735ebe	-0.059416525
23	0x3da797e2	0.08183266
24	0xbe7de1ea	-0.2479321
25	0x3cb1275c	0.021625213
26	0xbcde242a	-0.027116854
27	0xbbb235f4	-0.0054385606
28	0xbd90a6da	-0.070630744
29	0xbd3f847d	-0.04675721
30	0xbdb763ab	-0.08954557
31	0xbd61767a	-0.05504463
32	0xbd27a8ca	-0.040932454
33	0xbc2e6053	-0.010643083
34	0xbdd9d279	-0.106358476
35	0xbdd0e82a	-0.10200532
36	0x3ca4ab36	0.020101171
37	0xbc0f4672	-0.008744823
38	0x3db94a82	0.09047414
39	0xbdb06e8d	-0.08614836
40	0xbd28f4ad	-0.041248966
41	0xbd5a93f7	-0.053363767
42	0x3c3dced6	0.011584958
43	0x3b611eb3	0.0034350574
44	0xbd17f152	-0.037095375
45	0x3c8996ba	0.016795505
46	0xbde7c09e	-0.11316036
47	0x3d9b34e3	0.07578447
48	0xbe8dca77	-0.2769353
49	0x3d97cac5	0.07411722
50	0xbe42fc96	-0.19041666
51	0xbdd3e01e	-0.10345481
52	0xbe95bab7	-0.29244015
53	0x3dae23af	0.085029
54	0x3ccbe19f	0.024887858
55	0x3d235227	0.03987327
56	0xbd9963ba	-0.074897245
57	0x3cacb0a6	0.021080326
58	0xbbeaa070	-0.007160239
59	0x3cf53498	0.029932305
60	0xbe0283dd	-0.12745614
61	0x3de8f4a4	0.113747865
62	0x3e5d88fb	0.21634285
63	0x3d9f2d17	0.07772272
64	0xbc7a8a02	-0.015291693
65	0x3e15b6f7	0.14620577
66	0xbde09a72	-0.10966958
67	0x3e43a420	0.19105577
68	0x3d7b65b9	0.061376307
69	0x3d7f7091	0.06236321
70	0xbe18a53d	-0.14906783
71	0xbdf00b9c	-0.11720964
72	0xbd284481	-0.041080955
73	0xbd36ad38	-0.044598788
74	0xbe2de4c7	-0.16981803
75	0xbc5f5411	-0.013630883
76	0x3c74bd71	0.0149377445
77	0x3df28ba5	0.11843041
78	0xbddec20c	-0.10876855
79	0xbda04d89	-0.07827289
80	0x3d6be0c0	0.057587385
81	0x3da80158	0.08203381
82	0x3e1e9d8d	0.15489788
83	0x3cb5b575	0.022181252
84	0xbd31a61e	-0.043371312
85	0x3e81787f	0.25287244
86	0x3e120e4d	0.14263268
87	0xbd887eae	-0.06664787
88	0xbd85c7ef	-0.06532275
89	0x3d7a535a	0.061114646
90	0x3cfbeec5	0.030753503
91	0xbc824039	-0.015899764
92	0xbdde0589	-0.108408995
93	0x3dda5d37	0.106623106
94	0x3dffd5b4	0.124919325
95	0xbdb5c307	-0.08875089
96	0xbe3218e2	-0.17392305
97	0xbd4f3db6	-0.05059596
98	0x3d9695c1	0.07352782
99	0x3d2da9f1	0.042398397
100	0xbd3dbd5b	-0.04632316
101	0xbc10e010	-0.008842483
102	0xbd96f47f	-0.07370853
103	0x3d65183f	0.055931326
104	0xbdb20fe8	-0.0869444
105	0x3e366699	0.17812575
106	0x3ad897fc	0.0016524787
107	0x3d635fde	0.055511348
108	0xbde2b3cf	-0.11069452
109	0x3d136145	0.035981435
110	0xbe1684f9	-0.14699163
111	0xbdc09b87	-0.094046645
112	0x3d23b076	0.03996321
113	0xbd9af4dc	-0.075662345
114	0xbda9a619	-0.08283634
115	0x3e2bdd77	0.16783701
116	0x3cbf4f18	0.023353145
117	0x3d8cbc8c	0.068719
118	0x3dd0debe	0.10198735
119	0x3d99d006	0.075103804
120	0x3bdc49ac	0.0067226496
121	0x3c9d2657	0.01918332
122	0xbb683434	-0.0035431506
123	0xbd04b240	-0.032396555
124	0xbc161cf8	-0.00916218
125	0xbd435e08	-0.047697097
126	0xbdcccc87	-0.09999948
127	0x3d0a5d35	0.033780295
128	0xbca941f8	-0.02066134
129	0xbc4b6825	-0.012414967
130	0xbd958565	-0.073008336
131	0x3dce2f41	0.10067607
132	0xbe836195	-0.25660387
133	0xbd031496	-0.032002054
134	0xbde0b6ad	-0.10972343
135	0xbdaf0146	-0.08545165
136	0xbd8cd089	-0.068757124
137	0xbe07c369	-0.13258137
138	0x3df13aba	0.11778779
139	0x3e216f6f	0.15765165
140	0xbdbd6a8a	-0.09248836
141	0xbe9aae05	-0.3021089
142	0x3ce1fcc9	0.027586358
143	0xbd753250	-0.059862435
144	0xbcb6903b	-0.022285571
145	0x3a972230	0.0011530574
146	0x3dfd32ca	0.12363203
147	0xbdce6835	-0.1007847
148	0x3dec110c	0.11526689
149	0x3c88b82a	0.016689379
150	0xbae53606	-0.0017487414
151	0x3c95c4a3	0.01828224
152	0x3d34a9e4	0.044107333
153	0x3c91b5e2	0.017786924
154	0xbd618b93	-0.05506475
155	0x3d48d9c4	0.049035802
156	0x3d1f530d	0.038897563
157	0x3d0d92ab	0.0345637
158	0xbae3cea2	-0.0017380307
159	0x3d38f3a2	0.04515422
160	0xbd47287e	-0.0486226
161	0x3e769e34	0.24083787
162	0xbe132f65	-0.14373548
163	0xbdc06391	-0.09393991
164	0xbdfa2aa1	-0.12215162
165	0xbb2e17c9	-0.002656447
166	0x3e2697c4	0.16268831
167	0x3d87912c	0.06619486
168	0xbe4b04cf	-0.19826053
169	0xbe5373ab	-0.20649593
170	0x3dc51ba3	0.09624412
171	0x3d8360b4	0.06414929
172	0x3d26e83b	0.040748816
173	0x3e141f8b	0.14465158
174	0x3d29cafb	0.041453343
175	0x3d24dff5	0.040252645
176	0x3dc29269	0.09500582
177	0x3d253ef8	0.040343255
178	0x3daab399	0.08335037
179	0xbc236f92	-0.009975331
180	0x3bca26ae	0.0061691618
181	0x3c83e4b7	0.01610027
182	0xbe243cc2	-0.16038802
183	0x3dbb8aa2	0.091573015
184	0x3ceedf98	0.029159352
185	0x3c52789f	0.012846141
186	0x3d37d70d	0.044882823
187	0xbda0200d	-0.07818613
188	0xbcf6d6c7	-0.03013171
189	0xbd6c3744	-0.057669893
190	0xbd86ee7b	-0.06588455
191	0xbd8086c5	-0.06275705
192	0x3c1c3ec7	0.009536452
193	0x3db660ca	0.0890518
194	0xbca12d4d	-0.019674921
195	0x3d8c4e37	0.06850856
196	0x3d661a64	0.05617751
197	0x3dbd01e7	0.092288785
198	0xbdef7fe2	-0.116943136
199	0xbdeb7945	-0.1149774
200	0xbe0bfff4	-0.13671857
201	0xbe0a4bcf	-0.13505481
202	0xbdb7ff44	-0.08984235
203	0xbd11419b	-0.035462957
204	0xbdf26e1d	-0.11837409
205	0x3bcc49f4	0.006234402
206	0xbbbffc1a	-0.0058589103
207	0xbd648447	-0.055790212
208	0x3b955948	0.0045577623
209	0x3c595093	0.013263839
210	0xbc3e032a	-0.011597434
211	0xbe6d3cdf	-0.23167752
212	0xbd44f369	-0.048083697
213	0xbe1f2695	-0.15542062
214	0xbd98366c	-0.07432255
215	0x3ddc5c52	0.10759796
216	0xbcc09f48	-0.023513451
217	0xbd06ad36	-0.03288003
218	0xbcb283ed	-0.021791423
219	0x3c8543fb	0.016267767
220	0x3d50d96c	0.0509886
221	0x3d22b64e	0.03972464
222	0xbdaf5371	-0.08560837
223	0xbda2e179	-0.07953162
224	0xbbcbab9d	-0.0062155263
225	0xbcb4abd3	-0.022054588
226	0xbc8558d0	-0.0162777
227	0x3d79e3c0	0.061008215
228	0x3c098ec2	0.0083958525
229	0x3df35b46	0.118826434
230	0xbcaea607	-0.021319402
231	0xbd5b88e7	-0.053597357
232	0xbdffdbcb	-0.12493094
233	0x3d9742ac	0.073857635
234	0x3daf5535	0.08561174
235	0x3a6b1082	0.00089669984
236	0xbce3f712	-0.027827773
237	0x3daacad4	0.08339468
238	0x3dbf0599	0.093272395
239	0xbb8f8814	-0.0043802354
240	0xbe0b97c6	-0.13632116
241	0xbe36d38a	-0.17854133
242	0xbc8d2156	-0.01722781
243	0x3dec10b4	0.11526623
244	0x3af8cd55	0.0018982092
245	0xbd669905	-0.056298275
246	0x3d9be8d6	0.07612769
247	0x3d146942	0.036233194
248	0x3ac6adc7	0.0015157991
249	0xbd05c0f8	-0.032654732
250	0xbdb42b05	-0.08797268
251	0x3d0ce5ae	0.034398727
252	0xbd470831	-0.048591796
253	0xbe0ce347	-0.13758574
254	0x3d136463	0.035984408
255	0x3d6c7f06	0.057738326

conv2.bias f4 [64]
0	0x3c4744f1	0.012162433
1	0xbd0da647	-0.034582403
2	0xbd71cbd7	-0.059032287
3	0xbdbc5507	-0.09195905
4	0xbc8e6995	-0.01738433
5	0x3d5a0095	0.05322321
6	0x3db032ec	0.086034626
7	0x3d3eb23c	0.046556696
8	0x3d29df2c	0.0414726
9	0xbd862837	-0.06550639
10	0x3d1ca25a	0.038240768
11	0x3c7f56f3	0.015584695
12	0x3cca81da	0.024720121
13	0x3d10972a	0.03530041
14	0xbd094a5e	-0.033518188
15	0xbce6e6e0	-0.028186262
16	0xbc3f1c92	-0.011664527
17	0x3d901174	0.07034579
18	0xbd290548	-0.041264802
19	0xbd4a19a0	-0.049340844
20	0xba8525de	-0.001015838
21	0xbd21fb3b	-0.039546233
22	0xbd519d1b	-0.051175218
23	0xbcb05876	-0.021526556
24	0x3c8b7765	0.017024705
25	0xbca412e3	-0.020028537
26	0xbc635ecb	-0.013877581
27	0xbaf9d68d	-0.0019061133
28	0xbd383d7e	-0.04498052
29	0x3d81be8d	0.06335173
30	0x3d04b11d	0.03239547
31	0x3ca27d02	0.019834999
32	0xbd2b278e	-0.04178577
33	0x3c879e05	0.016554842
34	0xbd5d9b3b	-0.054103117
35	0x3c5462b9	0.01296299
36	0xbb4a26b0	-0.0030845813
37	0x3b8162b2	0.003948533
38	0xbd2e22b3	-0.04251356
39	0x3d8b615b	0.068056785
40	0x3d921786	0.07133393
41	0xbd4b22f1	-0.04959387
42	0xb9fa68f4	-0.00047761912
43	0x3d67c4a5	0.05658402
44	0xbce3ca6b	-0.027806481
45	0x3cf409e0	0.029789865
46	0x3d74a98f	0.059732016
47	0xbce6aa53	-0.028157389
48	0xbd3a670d	-0.045508433
49	0xbd3672cb	-0.04454307
50	0x3dacaa6f	0.08430945
51	0x3d3a34f1	0.045460645
52	0x3c91d5f4	0.017802216
53	0xbd477aa1	-0.048700932
54	0xbd564e05	-0.0523205
55	0xbc661e69	-0.014045336
56	0x3d1d8453	0.038456272
57	0xbca2be8a	-0.019866247
58	0xbc8ecbe4	-0.017431207
59	0xbba4bc68	-0.0050273426
60	0xbbdcc870	-0.006737761
61	0x3d09d0d5	0.033646423
62	0x3c877598	0.016535565
63	0xbd060017	-0.03271493

conv3.weight f4 [128, 64, 3, 3]
0	0x3d982f87	0.0743094
1	0x3ca5c087	0.020233406
2	0xbd65aac6	-0.056071065
3	0xbd305e20	-0.043058515
4	0xbdba8942	-0.09108211
5	0x3c8275a9	0.015925245
6	0x3cf35c5c	0.029707126
7	0x3d906e12	0.07052244
8	0x3e3c894a	0.18411747
9	0xbc6d5608	-0.0144858435
10	0xbca8078f	-0.020511417
11	0xbbdf7960	-0.006819889
12	0xbcef280a	-0.029193897
13	0xbc403b17	-0.011732838
14	0xbd354fce	-0.04426556
15	0x3ccc9075	0.024971226
16	0xbc05ca17	-0.008165858
17	0xbbe20444	-0.006897481
18	0xbd8a429c	-0.06750986
19	0xbd3c00e2	-0.04589928
20	0xbe0b1bfd	-0.13584895
21	0x3daefe97	0.08544653
22	0xbcd80e3b	-0.026373973
23	0xbdc220a7	-0.09478884
24	0x3e16e046	0.14733991
25	0x3d099829	0.033592377
26	0xbd59493d	-0.05304836
27	0xbdae0e36	-0.08498804
28	0xbd9b0964	-0.075701505
29	0xbdb7ec61	-0.089806326
30	0xbdb58d93	-0.08864894
31	0xbd9b9c4f	-0.07598173
32	0xbde49b1f	-0.111623995
33	0xbc8149da	-0.015782285
34	0xbc646498	-0.013939999
35	0xbd0d6b25	-0.03452601
36	0xbd9123be	-0.070868954
37	0xbdc95cd2	-0.09832157
38	0xbe00362b	-0.12520663
39	0xbe0721bf	-0.13196467
40	0xbd3a83e3	-0.045535933
41	0xbdd82d29	-0.105554886
42	0x3d84b140	0.0647912
43	0xbdbfbfde	-0.09362768
44	0x3db0f060	0.08639598
45	0x3c3ac36b	0.01139913
46	0xbcb27344	-0.021783479
47	0xbd806f54	-0.06271234
48	0xbd02adf7	-0.031904187
49	0x3c8842be	0.016633388
50	0xbd067406	-0.032825492
51	0x3d97b5c0	0.07407713
52	0x3d872497	0.06598776
53	0x3d1723c8	0.036899358
54	0x3d5ec59a	0.054387666
55	0x3dbb3184	0.09140304
56	0x3d636ef2	0.055525728
57	0x3dbc5250	0.09195387
58	0x3d17bd65	0.037045855
59	0x3d3dedbc	0.0463693
60	0x3df8e285	0.1215258
61	0x3d91848d	0.0710536
62	0x3d156746	0.036475442
63	0x3cdfd481	0.02732301
64	0x3d7090d6	0.058731876
65	0xbdba72bd	-0.09103916
66	0x3d63e797	0.055640783
67	0x3bff9259	0.0077994284
68	0xbd21b6d8	-0.039481014
69	0x3d710a73	0.058847856
70	0xbcbfcb1e	-0.023412284
71	0xbd222bff	-0.03959274
72	0x3d44a9b0	0.04801339
73	0x3d1a1aa4	0.037623063
74	0xbbf137b8	-0.0073613785
75	0x3e41f76c	0.1894204
76	0x3c21119e	0.00983086
77	0x3dd76be2	0.10518624
78	0xbe0c309a	-0.13690415
79	0xbdfcf740	-0.12351847
80	0xbe253692	-0.16134098
81	0x3d695ba1	0.05697215
82	0x3d26e9bc	0.04075025
83	0xbcad5973	-0.021160817
84	0xbe1956d6	-0.14974532
85	0x3d66422c	0.05621545
86	0xbb7a0bca	-0.0038154
87	0x3ba4d8b5	0.0050307163
88	0xbcb0cb2a	-0.021581251
89	0x3e5d5347	0.21613799
90	0x3d14b49f	0.036305066
91	0x3de5d129	0.11221535
92	0x3e2c1e4b	0.16808431
93	0xbda9201e	-0.08258079
94	0x3bf06793	0.0073365658
95	0x3d14baed	0.03631108
96	0xbc43e251	-0.0119558135
97	0x3d45be57	0.048277225
98	0x3b5c00ef	0.0033569892
99	0xbe129952	-0.143163
100	0x3cebdb9b	0.02879124
101	0xbd37ab8b	-0.04484133
102	0xbe0814cf	-0.13289188
103	0x3d4441f2	0.047914453
104	0xbe036f1e	-0.12835357
105	0xbd1a51f7	-0.037675824
106	0x3b94cea5	0.0045412355
107	0x3c8810e0	0.01660961
108	0x3da126b3	0.078687094
109	0x3dedadd7	0.11605423
110	0x3da7a232	0.08185233
111	0xbdcf9a70	-0.101368785
112	0x3af675dd	0.0018803437
113	0x3db2abc3	0.08724167
114	0xbe134847	-0.1438304
115	0x3dc39d11	0.095514424
116	0x3e134c6b	0.1438462
117	0xbdac311d	-0.08407805
118	0x3c7c25fd	0.0153899165
119	0x3bfb45c5	0.0076682293
120	0xbcacf41f	-0.0211125
121	0xbd3f71b3	-0.04673929
122	0xbc887b12	-0.016660247
123	0x3d16ee95	0.036848623
124	0x3e198b89	0.14994635
125	0x3debd740	0.11515665
126	0xbb913c8a	-0.0044322656
127	0xbb65541d	-0.0034992762
128	0x39a4e9f6	0.00031454832
129	0xbaab8000	-0.0013084412
130	0xba37d012	-0.0007011901
131	0x395c12bb	0.00020987813
132	0x39bb5524	0.00035730854
133	0xb8c5479f	-9.4070325e-05
134	0x38bc6a96	8.984392e-05
135	0x3a54b5d3	0.0008114252
136	0xbace7684	-0.0015751873
137	0xb7d8932c	-2.5817739e-05
138	0x3acce549	0.0015632297
139	0x3a7ec403	0.0009718539
140	0xbb0bd017	-0.0021333748
141	0x38ed80d8	0.0001132504
142	0x392ac367	0.00016285256
143	0x38d2b381	0.000100470155
144	0x3ca23766	0.019801807
145	0x3ce38a89	0.02777602
146	0xbd6bd74a	-0.057578363
147	0xbe392d69	-0.18083729
148	0xbe36a279	-0.17835416
149	0xbbf3f1f1	-0.007444613
150	0x3c9e1bcd	0.019300366
151	0x3d3bc5d4	0.04584296
152	0x3e29a20e	0.16565725
153	0xbcd854a3	-0.026407545
154	0x3bcb71ce	0.006208635
155	0xbd4140c7	-0.047180917
156	0x3d336a6e	0.04380267
157	0x3d31ffbb	0.043456774
158	0xbc09828d	-0.008392942
159	0x3d2376e2	0.039908297
160	0x3ce03014	0.027366675
161	0x3d996736	0.07490389
162	0xbd81e21d	-0.06341956
163	0x3dbc2f1f	0.09188675
164	0xbb8647ac	-0.0040978994
165	0x3e1c940c	0.1529085
166	0x3ded36bd	0.11582706
167	0x3e079ff2	0.13244608
168	0x3d061ca4	0.032742158
169	0x3e3f4bae	0.18681213
170	0x3da8632c	0.082220405
171	0x3d4037b6	0.04692813
172	0xbd534600	-0.05158043
173	0x3e398758	0.18118036
174	0xbd47fcdc	-0.04882513
175	0xbd2e5531	-0.042561714
176	0x3c20611f	0.0097887805
177	0x3de0b4bd	0.10971973
178	0xbd5cf1f8	-0.053941697
179	0xbcd543cc	-0.026033305
180	0xafc3abd2	-3.559238e-10
181	0xb00101d8	-4.6932547e-10
182	0x30546ecd	7.728261e-10
183	0x2f2919d0	1.5379631e-10
184	0x2fc07050	3.50044e-10
185	0xaf8d8ade	-2.5746422e-10
186	0xb042c36d	-7.0854506e-10
187	0x302bef7b	6.254976e-10
188	0x2ec5c0e3	8.9927864e-11
189	0xbc88fa7b	-0.016721
190	0xbc321c95	-0.010871072
191	0x3d34a043	0.04409815
192	0x3d897d68	0.067133725
193	0x3ce7445b	0.028230837
194	0x3d75b50d	0.059987117
195	0x3d3da2b0	0.04629773
196	0xbb6f1690	-0.0036481954
197	0x3d916966	0.07100181
198	0x3b123c8c	0.002231392
199	0xbbc5e3e7	-0.006039131
200	0x3c1ec21a	0.009689832
201	0x3baae730	0.005215548
202	0xbc0711a6	-0.008243954
203	0x3bd7f53e	0.0065905144
204	0x3c5e806e	0.013580425
205	0x3b00eb8f	0.0019671654
206	0x3b0041e0	0.0019570515
207	0xbd829540	-0.063761234
208	0xbd19de73	-0.03756566
209	0xbba35ea6	-0.004985648
210	0xbd8ca8d8	-0.06868142
211	0x3d1fb29c	0.038988695
212	0x3ce8fad1	0.028439911
213	0x3da651f6	0.081211016
214	0x3c541a02	0.012945654
215	0xbdf7001d	-0.120605685
216	0x3c7a9e44	0.0152965225
217	0xbbe5d3de	-0.007013782
218	0x3deed91d	0.11662505
219	0xbdadee73	-0.08492746
220	0xbd7d22a8	-0.06180063
221	0xbca5025d	-0.020142728
222	0x3c6bbf65	0.014388894
223	0x3d86be52	0.065792695
224	0xbd63efdf	-0.05564868
225	0xbc15644f	-0.009118154
226	0xbc676418	-0.014122985
227	0xbc778438	-0.015107207
228	0xbbf600dc	-0.0075074267
229	0xbc35d6cb	-0.011098574
230	0xbc65ba72	-0.014021503
231	0xbb8684f4	-0.0041052047
232	0xbc2d45a5	-0.010575687
233	0xbc4b3090	-0.012401715
234	0xb13ca589	-2.7451696e-09
235	0xb11f0cf5	-2.314491e-09
236	0x2f68da70	2.1177882e-10
237	0xb081c69f	-9.442437e-10
238	0xaf3a40b2	-1.6939586e-10
239	0x2f633219	2.0663328e-10
240	0xad2a68c2	-9.686642e-12
241	0xaf9e51cb	-2.879815e-10
242	0xad2f0fc0	-9.9510955e-12
243	0x3d385e69	0.04501191
244	0x3d196f90	0.03745991
245	0x3d1bc63c	0.038030848
246	0x3e3ea68d	0.18618222
247	0x3d673468	0.056446463
248	0x3d73f14d	0.059556294
249	0x3da6e55f	0.08149218
250	0xbd95eb22	-0.07320239
251	0xbc4d08ff	-0.012514352
252	0x3d024d05	0.031811733
253	0x3db7f66f	0.0898255
254	0x3d84c24a	0.0648237
255	0xbd6b9688	-0.057516605

conv3.bias f4 [128]
0	0xbd22a335	-0.039706428
1	0x3d360f68	0.044448286
2	0x3cc37b94	0.023862638
3	0x3b01e67a	0.0019821213
4	0x3d6ea6a9	0.05826441
5	0xbc82f97f	-0.01598811
6	0x3b9f074b	0.0048531643
7	0xbd44841b	-0.047977548
8	0x3c8354ea	0.016031701
9	0x3aa9aa87	0.0012944498
10	0x3c040b7b	0.008059378
11	0xbcdd8905	-0.027042875
12	0x3d1edbaa	0.038783707
13	0xbbb1ac27	-0.0054221335
14	0x3d411bb1	0.04714555
15	0x3cfc83f9	0.030824648
16	0x3d56354c	0.05229692
17	0xbca36993	-0.019947803
18	0x3d023cd5	0.031796295
19	0x3cc43804	0.023952492
20	0x3bc4c76d	0.0060052187
21	0xbc630964	-0.013857219
22	0x3cd4f049	0.025993483
23	0xbbef3254	-0.0072997008
24	0xb9f83ab5	-0.00047345986
25	0x3bd549fd	0.006509064
26	0xbcb26157	-0.02177493
27	0xb9254746	-0.00015762178
28	0xbd5bf183	-0.05369712
29	0x3ca6e86f	0.020374505
30	0xbc43b2ac	-0.011944454
31	0x3cf283d8	0.029603884
32	0xbd245fc0	-0.040130377
33	0x3c80f7f3	0.015743231
34	0xbd0b32e1	-0.03398407
35	0x3d18a285	0.037264366
36	0x3c76cf1f	0.01506403
37	0x3cd6978a	0.026195306
38	0x3cca9395	0.024728576
39	0x3c9d44ed	0.019197905
40	0xbcd7b496	-0.026331227
41	0x3c0f3e75	0.008742918
42	0xbd3c60a5	-0.045990605
43	0xb9ce2609	-0.0003931972
44	0xbca70c62	-0.020391647
45	0xbd47f873	-0.048820924
46	0xb9ae38f2	-0.00033230294
47	0xbd48ee3f	-0.049055334
48	0xbc826ae9	-0.01592012
49	0xbcc33ab3	-0.0238317
50	0xbcb0c6e3	-0.021579212
51	0xbcf82768	-0.030292228
52	0xbce776c4	-0.028254874
53	0x3cf4a548	0.029863968
54	0xbc564925	-0.013078962
55	0xbdd6b685	-0.104840316
56	0x3ca3c552	0.01999155
57	0x3c9b5ac9	0.018964188
58	0xba93c013	-0.0011272453
59	0xba38559c	-0.00070318
60	0x3d2d7139	0.042344306
61	0xba932382	-0.0011225792
62	0x3dab9751	0.08378471
63	0xbc473c25	-0.012160336
64	0xbcbe0283	-0.023194557
65	0xbcb48932	-0.022038076
66	0xbc3313f0	-0.010930046
67	0xbcb1762d	-0.021662796
68	0xbc55032f	-0.013001247
69	0x3ca14df3	0.01969049
70	0x3d11abde	0.035564296
71	0xbc99eeb3	-0.018790578
72	0xbc3d4d45	-0.011554067
73	0xbb014ec8	-0.0019730795
74	0x3d1112ee	0.035418443
75	0xbbc24cb5	-0.0059295543
76	0xbc296f04	-0.01034141
77	0xbd1df748	-0.038565904
78	0xbcc5f4c8	-0.024164572
79	0x3b8aad2e	0.0042320704
80	0x3d1a56f0	0.037680566
81	0x3ca3e4be	0.020006534
82	0x3d69f502	0.057118423
83	0x3b282f09	0.00256628
84	0xbd473e8b	-0.04864363
85	0x3d341047	0.043960836
86	0xbbeb7758	-0.0071858577
87	0x3d9c9001	0.07644654
88	0x3c869a46	0.016430985
89	0x3caee8fc	0.02135133
90	0x3d52e047	0.05148342
91	0xbc22ffb2	-0.009948658
92	0xbb3000e0	-0.002685599
93	0x3d01fc9e	0.031735055
94	0x3ced06b7	0.028933866
95	0xbc9648f2	-0.01834533
96	0xbc77abdf	-0.015116661
97	0xbc3cc0c2	-0.011520566
98	0xbd0400bd	-0.032227267
99	0x3ca363cf	0.019945053
100	0xbcdb82c8	-0.02679576
101	0x3c6cdd4f	0.014457061
102	0xbd30c107	-0.043152835
103	0xbd4f8dc8	-0.050672323
104	0xb9009d40	-0.00012265611
105	0x3d4c4b02	0.04987622
106	0x3d701d60	0.058621764
107	0xbd30c360	-0.043155074
108	0xbd145a77	-0.036219086
109	0xbac3e9de	-0.0014947017
110	0xbcff4ee1	-0.031165542
111	0xbcea570a	-0.028605957
112	0xbcf291a7	-0.029610468
113	0xbc3dd5bc	-0.011586603
114	0x3db5b364	0.08872107
115	0xbce10744	-0.027469285
116	0x3aeb82cc	0.0017968058
117	0xbc5f5235	-0.0136304395
118	0x399612d2	0.00028624252
119	0x3cbeca85	0.023289928
120	0xbc3c6dc9	-0.011500784
121	0x3d33f079	0.043930504
122	0xbd0e6715	-0.034766275
123	0xbc2ef3d1	-0.010678248
124	0x3c68a648	0.014199801
125	0xbd47a751	-0.04874355
126	0x3b448d4e	0.002999145
127	0xbc2abefe	-0.010421513

act_conv1.weight f4 [4, 128, 1, 1]
0	0xbe4f21ee	-0.20227787
1	0xbe0e7e32	-0.13915327
2	0xbc699517	-0.014256737
3	0x3da2adc8	0.079433024
4	0xbcf0073c	-0.029300325
5	0xbc2b261d	-0.010446099
6	0xbd64ae2e	-0.055830173
7	0xbc596d73	-0.013270724
8	0x3c548c5a	0.012972916
9	0x3d2bcc3d	0.041942824
10	0x3d93a6a5	0.07209519
11	0xbc389a15	-0.011267205
12	0xbcc10ed5	-0.023566643
13	0xbdf2eaaf	-0.118611686
14	0x3e579b22	0.21055272
15	0xbe417972	-0.18893984
16	0x3e0d3492	0.13789585
17	0xbc0d02bd	-0.00860661
18	0xbdbec0f5	-0.093141474
19	0x3e06b3f1	0.1315458
20	0x3ca901c4	0.020630725
21	0x3c06c74e	0.008226229
22	0x3ce5c5f3	0.028048491
23	0x361986c2	2.2877216e-06
24	0x3beb349a	0.0071779015
25	0x3c7afcc1	0.01531905
26	0x3e834a33	0.25642547
27	0x38c046db	9.168471e-05
28	0x3e26cc9c	0.1628899
29	0xbd90ab53	-0.070639275
30	0xbb35f707	-0.0027765648
31	0x3e17927d	0.14801975
32	0x3bb47d82	0.0055081258
33	0xbe9f67ed	-0.31133977
34	0x3c36ed6b	0.011165003
35	0xbdfc3872	-0.123154536
36	0x3b45d98d	0.0030189485
37	0xbdbd326d	-0.092381336
38	0xbcbc6690	-0.022998124
39	0x3d59a0d7	0.053131904
40	0x3e80da3b	0.25166497
41	0x3c3f5739	0.01167851
42	0xbcf6d941	-0.030132892
43	0x3e6244a7	0.22096501
44	0x3df17b63	0.11791112
45	0xb8c777e8	-9.511394e-05
46	0xbc1f2c43	-0.009715143
47	0x3e72f8d6	0.23727736
48	0xbc2f7247	-0.010708398
49	0xbe4cb2c6	-0.19990072
50	0x3a8583f3	0.0010186419
51	0xbea045d6	-0.3130328
52	0xbd9f89ac	-0.07789931
53	0x3ce4fdab	0.02795299
54	0xbd2bcb62	-0.041942008
55	0x3d6915c0	0.056905508
56	0x3d24f3b0	0.04027146
57	0xbd0555b3	-0.032552432
58	0xbdb53dd5	-0.08849684
59	0x38c37d7a	9.3216964e-05
60	0x3b366f54	0.0027837353
61	0x3a88af09	0.0010428141
62	0xbdba3d5e	-0.09093736
63	0xbc6880b9	-0.014190846
64	0xbdb7e251	-0.08978713
65	0x3e4e7c8b	0.20164697
66	0x3bbf3292	0.005834886
67	0xbe09c315	-0.13453324
68	0xbb59a835	-0.0033211831
69	0x3d462936	0.048379146
70	0x3e27918d	0.16364117
71	0x3d2c25a1	0.042028073
72	0xbe134601	-0.14382173
73	0x3cd1ea12	0.025624309
74	0x3e6bb322	0.23017552
75	0xbc832c31	-0.016012283
76	0x3c3ca651	0.011514262
77	0x3c4931f2	0.012279974
78	0x3dbbb952	0.091662064
79	0xbcf10a16	-0.029423755
80	0x3d980dee	0.07424532
81	0xbc6e110a	-0.01453043
82	0x3d371a2a	0.044702686
83	0x3cfd375a	0.030910183
84	0x3cce21ab	0.025162539
85	0x3d558eaf	0.052138027
86	0x3dad024a	0.08447702
87	0x3d38b17c	0.045091137
88	0x3dbf6248	0.093449175
89	0xbd6be772	-0.05759377
90	0xbd9a43e0	-0.075324774
91	0xbcebce37	-0.028784854
92	0xbc83a73f	-0.01607096
93	0x3dcd238d	0.100165464
94	0xbb4ad4b0	-0.0030949526
95	0x3d45c286	0.048281215
96	0xbc996755	-0.01872603
97	0x3c17dce0	0.009268969
98	0x3d2fdc40	0.042934656
99	0x3c9828ec	0.0185742
100	0x3bc21075	0.005922372
101	0x3d0cdb3a	0.03438876
102	0x3e43899f	0.19095467
103	0x3c98cef4	0.01865337
104	0x2e186447	3.4649863e-11
105	0xbbba7999	-0.005690765
106	0x3b21a61e	0.0024665664
107	0x3d869bae	0.06572662
108	0x3dbf4f6d	0.09341321
109	0x3dda978d	0.10673437
110	0xbc3aadb4	-0.011393953
111	0xbd4e4706	-0.050360702
112	0x3bac562c	0.005259296
113	0xbc7fc0c4	-0.015609924
114	0xbba7c86e	-0.0051203286
115	0x3cd7e03f	0.026352046
116	0x3d7759c5	0.060388345
117	0xbe05af22	-0.13055089
118	0xbdb0f48d	-0.08640394
119	0x3e4bebc7	0.1991416
120	0x3d314a25	0.0432836
121	0xbd78dc00	-0.060756683
122	0xbc3dd21c	-0.0115857385
123	0xbab76397	-0.0013991472
124	0x3dac3d07	0.084100775
125	0x3c6edbfb	0.014578815
126	0xbd0ecec8	-0.03486517
127	0xbc0a7cb2	-0.008452581
128	0xbd43f5b9	-0.04784176
129	0xbdd1fb90	-0.1025306
130	0x3d583d38	0.052792758
131	0x3b09070a	0.0020908737
132	0xbc8afd03	-0.016966349
133	0xbd57d29e	-0.052691095
134	0xbe22be9f	-0.15893029
135	0xbe0b15d2	-0.13582543
136	0xbd55fb52	-0.05224163
137	0xbd8bc1b3	-0.068240546
138	0xbabbd29e	-0.0014329737
139	0x3c42dac0	0.011892974
140	0x3d4f5fdd	0.05062853
141	0xbd342e80	-0.04398966
142	0x3da732ce	0.08163987
143	0xbcd6cb87	-0.026220096
144	0x3cfdfae9	0.031003432
145	0xbc7b945f	-0.015355199
146	0xbd715727	-0.058921006
147	0x3d157fff	0.03649902
148	0x3c1a88d8	0.00943204
149	0x2c66bb10	3.2788806e-12
150	0xbe346f7c	-0.17620653
151	0x2c5e6328	3.160314e-12
152	0xa5ce6cb0	-3.5808953e-16
153	0xbda52e1c	-0.08065435
154	0x3d82a73f	0.06379556
155	0x23442e2f	1.0634961e-17
156	0x3d32bb48	0.043635637
157	0xbcd0165e	-0.02540129
158	0x2ce3fa5a	6.4795226e-12
159	0x3d3cf12e	0.046128444
160	0x3da6c3c3	0.08142807
161	0xbd3402dc	-0.04394804
162	0x3d53c904	0.051705375
163	0xbe0f8119	-0.1401409
164	0xbd09b6a7	-0.033621456
165	0xbd56bb70	-0.052424848
166	0xbc9f4121	-0.019440236
167	0xbe534f21	-0.20635654
168	0x3d2ffe7a	0.042967297
169	0xbd5d68d7	-0.05405506
170	0x3dc02ba9	0.093833275
171	0x3d1822d2	0.037142582
172	0xbdc82406	-0.09772496
173	0xbae4749e	-0.0017429774
174	0x2f61db55	2.0541553e-10
175	0x3d608258	0.054811805
176	0xba51c976	-0.00080027373
177	0xbe03957d	-0.12849994
178	0x3e11868b	0.1421148
179	0xbc86860d	-0.016421342
180	0xbde8ff92	-0.11376871
181	0x3d479888	0.04872945
182	0xbe6a7280	-0.22895241
183	0xbcd897b6	-0.026439529
184	0xbd8b72fb	-0.0680904
185	0xbe066fe0	-0.13128614
186	0xbd63c266	-0.055605315
187	0xa35c3138	-1.1936646e-17
188	0xbdbcaae7	-0.092122845
189	0x3d573c42	0.0525477
190	0xbc8e5150	-0.017372757
191	0x2ded20d0	2.6958352e-11
192	0x3d8c99f3	0.06865301
193	0x3ca975b8	0.020686015
194	0xb3b2cb03	-8.3256985e-08
195	0xbdf8a533	-0.12140884
196	0x35e75b30	1.723738e-06
197	0xbd50f013	-0.051010203
198	0x3d332525	0.043736596
199	0xbd22d32a	-0.039752163
200	0x3cd9a440	0.026567578
201	0xbd362ea7	-0.044478085
202	0x3d465689	0.04842237
203	0x3d16200b	0.036651652
204	0x3cc895fe	0.024485584
205	0x3d8a750d	0.06760607
206	0xbd8b4408	-0.06800085
207	0xbdf351ce	-0.118808374
208	0xbb2a3231	-0.0025969858
209	0x3d2e05b8	0.042485923
210	0xbb260eef	-0.002533849
211	0xbd2729e8	-0.04081145
212	0xbe2d7d19	-0.16942252
213	0xbd06d882	-0.03292132
214	0x3c504d8e	0.012713803
215	0xbcf36e4e	-0.029715683
216	0x3cebeac3	0.028798467
217	0xbd115508	-0.035481483
218	0xbcaaf8c6	-0.020870578
219	0x3ec0e52b	0.3767484
220	0x3270cadc	1.40159635e-08
221	0x3d61b3e9	0.055103216
222	0xbe2086d1	-0.15676428
223	0xbd913924	-0.07090977
224	0x3d0fba09	0.035089526
225	0x3d0c1152	0.034196205
226	0xbc6bef20	-0.014400274
227	0xbccc84db	-0.024965694
228	0xbcf03ae9	-0.029324966
229	0xbdc16326	-0.09442739
230	0x3de83491	0.11338151
231	0xbe198269	-0.14991154
232	0xa2b12597	-4.8015746e-18
233	0xbe0360b1	-0.12829854
234	0xbba5a02a	-0.0050544934
235	0x3d25c2c1	0.040468935
236	0x3d1d4946	0.038399957
237	0xbe25eb8b	-0.16203134
238	0x3e36df9f	0.17858742
239	0x3c33599c	0.0109466575
240	0xbd7fa981	-0.06241751
241	0xaf80178a	-2.329979e-10
242	0xbb756fbd	-0.0037450634
243	0xbd8f79c2	-0.07005645
244	0xbd8f5519	-0.06998653
245	0x3d8787ce	0.066176996
246	0x3b6a8ea8	0.0035790596
247	0x3d4c4956	0.049874626
248	0xbd1c0208	-0.038087875
249	0xbc297d27	-0.01034478
250	0xbdacd39e	-0.084388
251	0x22d86278	5.8651175e-18
252	0x3c2e6fd3	0.010646778
253	0xbbf6dce2	-0.0075336555
254	0xbdd16283	-0.10223868
255	0x3b0e490d	0.0021711022

act_conv1.bias f4 [4]
0	0x3d81aacd	0.06331406
1	0x3caf67af	0.021411745
2	0x3d1d5b20	0.03841698
3	0x3ddd1da2	0.10796668

act_fc1.weight f4 [64, 256]
0	0xbc50cd6a	-0.012744287
1	0xbd83ca48	-0.064350665
2	0xbccb4fa4	-0.024818249
3	0x3bebd93f	0.0071975286
4	0xbca800f8	-0.020508274
5	0x3c43b698	0.011945389
6	0x3cbf8445	0.0233785
7	0x3d272ffd	0.04081725
8	0xbd836376	-0.06415455
9	0x3c56476a	0.01307855
10	0x3c476b21	0.012171538
11	0xbc8b7b5f	-0.017026601
12	0xbd596233	-0.053072166
13	0xbd73a3c8	-0.059482366
14	0x3d69e1d4	0.057100132
15	0xbc514609	-0.012773045
16	0xbcc22575	-0.023699502
17	0xbc9ac51a	-0.018892813
18	0x3c9a7616	0.018855136
19	0x3caadecd	0.020858193
20	0xbcf5e9df	-0.030018745
21	0xbd04d6d3	-0.032431435
22	0xbd7eee2e	-0.062238865
23	0xbaec88d8	-0.0018046154
24	0xbd134ca8	-0.035961777
25	0xbbcdd76b	-0.0062817833
26	0x3ca6a4f1	0.020342322
27	0x3ccdb1c7	0.025109185
28	0x3d3764c9	0.04477385
29	0xbd773ba8	-0.060359627
30	0xbc527528	-0.012845315
31	0xbce764b7	-0.028246267
32	0x3d46c36c	0.048526213
33	0x3c8093f1	0.015695544
34	0x3d01cbbd	0.03168844
35	0x3d7f1e8c	0.06228499
36	0x3d2396f8	0.039938897
37	0x3c9cabae	0.019124832
38	0x3cb97c3b	0.022642246
39	0xbd8884e6	-0.06665973
40	0xbdc574b5	-0.09641401
41	0x3cc1c6b6	0.023654323
42	0x3d7b565a	0.06136165
43	0x3d089cca	0.03335265
44	0x3d1e4373	0.038638543
45	0x3ceb97dc	0.028758936
46	0x3d83c4d6	0.06434028
47	0x3c87195f	0.01649159
48	0x3d43e3eb	0.04782478
49	0x3d0c3f7f	0.034240242
50	0x3d9cea59	0.07661886
51	0xbc871f6c	-0.016494475
52	0x3cfb2f6f	0.030662267
53	0x3c51c984	0.012804393
54	0x3d40c2c0	0.047060728
55	0xbd4ba31e	-0.049716108
56	0xbe9b91c7	-0.30384657
57	0x3dbdfd88	0.09276873
58	0xbd3ceea5	-0.046126027
59	0xbc06562d	-0.008199257
60	0xbd038f12	-0.032118864
61	0xbbf3a396	-0.0074352724
62	0xbd50f7b3	-0.051017474
63	0x3b0b18f8	0.00212246
64	0xbd66b248	-0.056322366
65	0xbdc3d94e	-0.09562932
66	0xbd264cf8	-0.040600747
67	0xbdda53a6	-0.10660486
68	0xbcb57206	-0.022149097
69	0x3d1105b2	0.035405822
70	0xbe17d373	-0.14826755
71	0xbdc24398	-0.09485549
72	0xbdb27992	-0.08714594
73	0xbc8d6211	-0.017258676
74	0xbcfb65d4	-0.030688204
75	0xbbd0a9f0	-0.0063679144
76	0xbd2d14f5	-0.042256314
77	0x3ba76713	0.005108723
78	0xbd144060	-0.036194205
79	0xbe89b8db	-0.26898846
80	0x3c120ec3	0.008914652
81	0x3c2329dc	0.0099587105
82	0x3d9fd355	0.0780398
83	0xbca2ece3	-0.019888347
84	0xbcc9b118	-0.024620578
85	0xbccb1cb0	-0.024793953
86	0xbc984f05	-0.018592367
87	0xbd2528cf	-0.04032212
88	0xbab590c3	-0.0013852346
89	0xbca61296	-0.020272534
90	0xbcdfcbf3	-0.02731893
91	0xbc40cdc1	-0.011767806
92	0xbd459e32	-0.04824657
93	0xbdacc4df	-0.08435988
94	0xbe109904	-0.14120871
95	0xbe2b16ec	-0.16707963
96	0xbb85b0fb	-0.0040799356
97	0x3d383901	0.04497624
98	0x3d43b544	0.04778029
99	0xbb81dc5a	-0.0039630355
100	0x3d646983	0.055764686
101	0xbd608875	-0.054817636
102	0xbd401e90	-0.046904147
103	0xbe3744f9	-0.17897405
104	0x3dba3b8a	0.090933874
105	0xbd97acb1	-0.07405985
106	0x3db8d863	0.090256475
107	0xbc2c96a3	-0.0105339615
108	0xbcb5237c	-0.022111647
109	0x3c1eebf4	0.00969981
110	0xbd91b408	-0.07114416
111	0xbd9aa168	-0.07550317
112	0xbdc2901b	-0.09500142
113	0x3e1d2e26	0.15349635
114	0xbc89021f	-0.016724644
115	0x3dc8584a	0.09782465
116	0x3d81d8b0	0.06340158
117	0xbd4cc144	-0.049989
118	0x3c2888a1	0.010286481
119	0xbdcb4768	-0.09925729
120	0xbc154888	-0.009111531
121	0xbd641195	-0.05568083
122	0x3d0660e4	0.032807246
123	0xbdbb82f5	-0.091558374
124	0x3d9ad19b	0.0755951
125	0xbd77e205	-0.060518283
126	0xbe3738af	-0.17892717
127	0xbcc9c1c7	-0.024628533
128	0x3c93a139	0.018021213
129	0x3bd53b80	0.006507337
130	0x3ce43d65	0.027861306
131	0xbbe718e8	-0.0070525296
132	0xbcbdc10f	-0.023163347
133	0x3c406ea5	0.01174513
134	0x3cdc5076	0.026893836
135	0x3d00fb40	0.03148961
136	0xbd364dc9	-0.044507775
137	0x3d816b02	0.06319238
138	0x3d29a914	0.04142101
139	0x3d8539b7	0.06505149
140	0x3d37fc22	0.044918187
141	0x3af1da27	0.0018451855
142	0x3c00f5db	0.0078711165
143	0x3cee3836	0.029079538
144	0xbc46be47	-0.012130327
145	0x3cf0b7fc	0.029384606
146	0xbbaf9d63	-0.005359338
147	0x3d04164b	0.032247823
148	0xbd7f4384	-0.062320247
149	0x3bf32be0	0.007421002
150	0x3d1864aa	0.037205376
151	0xbba4c6b8	-0.005028572
152	0xbd88be8a	-0.066769674
153	0x3d601345	0.054705877
154	0x3cc8def0	0.024520367
155	0xbdb7c27e	-0.08972643
156	0xbcab8fdb	-0.02094262
157	0xbcd93f5c	-0.02651947
158	0x3d22bad2	0.039728947
159	0x3cac2287	0.021012558
160	0xbc948677	-0.018130524
161	0x3d2c7f96	0.042113863
162	0xbb851f63	-0.0040625795
163	0xbde8cb99	-0.11366958
164	0xbd42e5ae	-0.04758232
165	0xbd564406	-0.052310966
166	0x3d1952c8	0.037432462
167	0x3cd4699a	0.025929261
168	0x3e2f66b3	0.1712902
169	0xbd495935	-0.04915734
170	0xbd80cbd4	-0.06288877
171	0x3c500863	0.012697312
172	0xbd88c2c7	-0.06677776
173	0xbd973437	-0.07383006
174	0xbd3be309	-0.045870814
175	0x3b9ff1bc	0.004881112
176	0xbe332565	-0.17494734
177	0x3e6b98b1	0.23007466
178	0x3e2d562b	0.16927402
179	0xbc3efbc7	-0.011656708
180	0xbd40ea0a	-0.047098197
181	0xbd698c73	-0.05701871
182	0xbc9f351b	-0.019434502
183	0x3d0ed06d	0.03486674
184	0xbd47e0fa	-0.04879854
185	0xbe477453	-0.19477968
186	0x3cdf9b68	0.027295783
187	0xbd378097	-0.044800367
188	0xbd5c10a3	-0.053726804
189	0x3bb9bed0	0.0056684986
190	0xbd1c700c	-0.038192794
191	0x3d2f2797	0.042762365
192	0x3c14c76a	0.009080747
193	0xbc96fd4f	-0.018431334
194	0xbc2d9a36	-0.010595849
195	0xbcec9619	-0.028880166
196	0xbd86eac2	-0.06587745
197	0xbcea8dbe	-0.028632041
198	0x3c1b47df	0.009477585
199	0xbd1a425c	-0.03766094
200	0xbd179b36	-0.037013255
201	0xbcce9ea8	-0.025222138
202	0x3bc029b6	0.0058643473
203	0x3c2e13fe	0.010624884
204	0xbcbfc6a1	-0.023410143
205	0xbcd00ab4	-0.025395729
206	0x3b112a48	0.0022150446
207	0xbc598a60	-0.01327762
208	0xbc803a14	-0.015652694
209	0xbdb3e7c2	-0.08784439
210	0x3cbd0a7d	0.02307629
211	0xbd514339	-0.0510895
212	0xbb757f40	-0.003745988
213	0xbd4bf849	-0.04979733
214	0x3b936588	0.0044981875
215	0xbd8a88a3	-0.06764343
216	0xbc326e47	-0.01089055
217	0xbd905b92	-0.07048716
218	0xbd4f4c89	-0.0506101
219	0xbc665046	-0.014057225
220	0xbdb3321f	-0.08749794
221	0xbc79aa5a	-0.015238369
222	0x3b94675e	0.004528924
223	0xbd95e496	-0.0731899
224	0xbdb2e72a	-0.08735497
225	0xbceabc16	-0.02865414
226	0xbc93a5e0	-0.018023431
227	0xbd91c001	-0.071167
228	0xbd3fae25	-0.046796937
229	0xbde28124	-0.11059788
230	0x3bd6b76e	0.0065526282
231	0xbd25b3cc	-0.04045467
232	0x3d8eb490	0.06968033
233	0x3dab0f37	0.083525114
234	0xbded8905	-0.115984
235	0x3cb598c6	0.022167575
236	0xbd9d2e16	-0.07674806
237	0xbd25df4c	-0.040496156
238	0xbcecef65	-0.028922746
239	0xbc240dc2	-0.010013046
240	0x3e397c19	0.18113746
241	0xbdb365d7	-0.08759659
242	0x3e0d44ff	0.13795851
243	0xbd85b0a1	-0.0652783
244	0xbc801789	-0.015636222
245	0xbc6f4162	-0.014602991
246	0xbb0ddee0	-0.0021647736
247	0xbc834302	-0.016023163
248	0x3de53ecb	0.111936174
249	0xbe922550	-0.28544092
250	0xbdcf5b9a	-0.101248935
251	0x3b41685b	0.0029511664
252	0xbd2e8511	-0.04260737
253	0xbc97d0f5	-0.018532256
254	0xbd30fae0	-0.043208003
255	0xbcf3ba86	-0.029752027

act_fc1.bias f4 [64]
0	0xbd3958f9	-0.045250867
1	0xbc68c5b9	-0.014207297
2	0xbd014bf9	-0.031566594
3	0x3bd1daea	0.0064042704
4	0xbce3018f	-0.027710704
5	0xb816f470	-3.5990437e-05
6	0xbce6b9c5	-0.028164754
7	0xbc3e08ea	-0.011598805
8	0xbd4094ec	-0.047017023
9	0xbce654e7	-0.028116656
10	0x3cca9446	0.024728905
11	0xbc9531b4	-0.018212177
12	0xbcbf9348	-0.023385659
13	0xbd9e4e02	-0.077297226
14	0x3c677f0e	0.014129413
15	0xbda5361e	-0.08066963
16	0xbd0e4e93	-0.034742903
17	0xbd4c3460	-0.049854636
18	0x3d6ce1cc	0.057832524
19	0x3d8d6a2b	0.069050156
20	0x3cce76fa	0.025203217
21	0x3da2d187	0.079501204
22	0x3c17a263	0.009255025
23	0xbc971f4b	-0.018447539
24	0xbcb59db5	-0.022169927
25	0xbc8e44ce	-0.017366793
26	0x3c3b5ef9	0.011436217
27	0x3df1176a	0.11772044
28	0x3e072911	0.1319926
29	0x3d9b59b9	0.075854726
30	0xbd0ea28a	-0.034822978
31	0xbd380fde	-0.044937007
32	0xbc8d475c	-0.01724594
33	0xbd158fb6	-0.036514007
34	0x3d490255	0.04907449
35	0x3c50ca2b	0.012743513
36	0x3e0d358b	0.13789956
37	0x3d0d3878	0.03447768
38	0x3b8a43b5	0.004219497
39	0xbcfa1b5c	-0.030530624
40	0xbb357d5c	-0.0027693128
41	0xbd8d096c	-0.06886563
42	0x3bdbc51c	0.006706847
43	0x3ceb78e0	0.028744161
44	0x3d3aae63	0.045576464
45	0x3d6cbd8c	0.057797953
46	0x3c93baaf	0.018033354
47	0xbcaddc68	-0.021223262
48	0xbc703032	-0.014659928
49	0xbd310abe	-0.043223135
50	0x3bd0ca38	0.0063717626
51	0xbc8fd5f9	-0.017558085
52	0xbca2fd7d	-0.019896263
53	0x3b8692ea	0.004106869
54	0x3cda0a40	0.026616216
55	0xbd9fe728	-0.078077614
56	0xbd3fefa3	-0.046859395
57	0xbdb9695d	-0.090532996
58	0xbd23f1c5	-0.04002549
59	0x3caa3098	0.020775124
60	0x3c3793eb	0.0112047
61	0xbce6f7f8	-0.028194413
62	0xbd4bd42d	-0.049762893
63	0xbd8dac48	-0.06917626

val_conv1.weight f4 [2, 128, 1, 1]
0	0x3d827866	0.063706204
1	0x3d31d265	0.04341354
2	0xbbd80fbc	-0.0065936726
3	0x3c457358	0.012051426
4	0x3d7805d1	0.060552422
5	0xbd8dc0a2	-0.069215074
6	0x3d8f9769	0.07011301
7	0x3c820a3c	0.01587402
8	0x3d9647a8	0.07337886
9	0x3d41ef16	0.04734715
10	0xbda226b3	-0.079175375
11	0x3ce3f048	0.027824536
12	0xbdfddc99	-0.12395591
13	0x3e0c967a	0.13729277
14	0xbe195811	-0.14975001
15	0x3ea7c7d8	0.32769656
16	0xbd1419ab	-0.03615729
17	0xbc359944	-0.011083905
18	0x3d32c22c	0.043642208
19	0xbca0008e	-0.019531514
20	0xbe058955	-0.1304067
21	0xbb5b0402	-0.0033419137
22	0x3df7956a	0.12089045
23	0xb3164eb8	-3.499619e-08
24	0xbbd22514	-0.0064131115
25	0x3e50292e	0.20328209
26	0xbd44f4fd	-0.0480852
27	0xbbbc40eb	-0.0057450435
28	0xbe513e77	-0.20433985
29	0xbe835f1a	-0.25658494
30	0x3ba21a39	0.0049469736
31	0x3b6c90df	0.0036097092
32	0x3e045d65	0.12926252
33	0xbe0991e2	-0.13434556
34	0x3ba96d62	0.00517051
35	0x3d1ca181	0.03823996
36	0x3d09ddd3	0.033658814
37	0x3d651151	0.055924717
38	0xbafb60cc	-0.0019178628
39	0xbe0dd231	-0.13849713
40	0xbbdb57ea	-0.00669383
41	0xbdc7157f	-0.09720897
42	0x3cf4ee90	0.029898912
43	0x3be44723	0.006966488
44	0x3d0305be	0.031987898
45	0x3dacefde	0.084441885
46	0x3b80454b	0.0039145104
47	0xbcbcc82e	-0.023044672
48	0xbc74e3c5	-0.014946883
49	0x3de64de2	0.11245324
50	0xbd046b1c	-0.03232871
51	0xbcf82caf	-0.030294744
52	0xbd9f3a76	-0.077748224
53	0xbde54c50	-0.11196196
54	0x3d680728	0.05664745
55	0xbe36dd8b	-0.1785795
56	0xbe45f079	-0.19330014
57	0xbc97a2bd	-0.018510217
58	0x3d421139	0.047379706
59	0x3bf17a07	0.007369283
60	0xbeabdada	-0.33565408
61	0xbc7c3fb9	-0.015396052
62	0x3cd2ed82	0.025748018
63	0x3a646b28	0.00087134773
64	0x3d1af69b	0.037832838
65	0xbc98b491	-0.018640788
66	0x3c1bb38b	0.009503256
67	0xbc38311a	-0.0112421755
68	0x3b52e570	0.0032180212
69	0x3dd5b14e	0.10434209
70	0xbc540a6a	-0.012941936
71	0x3d5528f1	0.052040998
72	0xbdc6810c	-0.096925825
73	0x3dbd030d	0.092290975
74	0xbd1eefc7	-0.03880289
75	0x3d045751	0.032309834
76	0x3dc1440e	0.094368085
77	0x3d01f356	0.031726204
78	0xbdf46329	-0.11932976
79	0xbda0c353	-0.07849755
80	0x3cb04c52	0.021520767
81	0xbd8712d3	-0.06595387
82	0xbe3de75e	-0.18545291
83	0x3c89969a	0.016795445
84	0x3e6b4874	0.22976857
85	0x3d9aeb73	0.075644396
86	0x3d4e8d1a	0.050427534
87	0x3d81d6f6	0.06339829
88	0x3d591ed4	0.053007916
89	0x3ba03355	0.0048889318
90	0x3d568986	0.052377246
91	0xbd78cd6f	-0.06074279
92	0x3b38f050	0.002821941
93	0xbcc8068c	-0.024417184
94	0xbe117f20	-0.1420865
95	0x3df6f0b9	0.12057633
96	0xbe3c5790	-0.18392777
97	0xbdd48126	-0.103761956
98	0x3e1283c1	0.14308073
99	0xbe18ae45	-0.14910229
100	0x3d289f83	0.041167747
101	0x3bfff1fd	0.0078108297
102	0xbe538c2f	-0.20658945
103	0xbdd74d49	-0.10512788
104	0x2f74318b	2.2209272e-10
105	0xbcb0ba45	-0.021573195
106	0x3d167f68	0.036742598
107	0xbe86111c	-0.26184928
108	0x3c63b01c	0.013896968
109	0x3ddc35c2	0.10752441
110	0x3e725031	0.23663403
111	0xbe166072	-0.14685228
112	0x3d59dd38	0.053189486
113	0x3b48460a	0.0030559325
114	0x3c818fb4	0.015815593
115	0x3d09b2d4	0.03361781
116	0x3deb8d37	0.11501544
117	0xbe989d48	-0.29807496
118	0x3cc0f3ce	0.023553755
119	0xbda0d10c	-0.078523725
120	0xbbe8f5a7	-0.007109362
121	0xbdc6bbab	-0.097037636
122	0x3d397e8e	0.045286708
123	0x3b6883d1	0.003547896
124	0x3da39abe	0.07988499
125	0xbdd3ba75	-0.10338298
126	0x3d925a29	0.07146103
127	0x3afc4161	0.0019245559
128	0xbd59937c	-0.053119168
129	0xbd375358	-0.044757217
130	0x3e3c8df1	0.18413521
131	0x3d977226	0.07394819
132	0x3c0073b9	0.00784009
133	0x3d0079e0	0.03136623
134	0x3d0f080e	0.03491979
135	0x3de499f3	0.11162176
136	0xbd427deb	-0.047483366
137	0x3d0cf7e8	0.03441611
138	0x3e3e0ff1	0.18560769
139	0x3de4a812	0.11164869
140	0xbd846008	-0.06463629
141	0xbd561502	-0.05226613
142	0xbcfdbe5b	-0.030974558
143	0x3ddd6854	0.10810915
144	0x3cbc71bd	0.023003453
145	0x3b9f0c7c	0.004853783
146	0xbd48dea2	-0.049040444
147	0xbb080d6d	-0.0020759956
148	0x3e0dea86	0.13858995
149	0x3bb416e4	0.005495893
150	0x3d9f0a3f	0.07765626
151	0xb288d802	-1.5930713e-08
152	0x3a3eea70	0.0007282859
153	0xbe1bdd14	-0.15221053
154	0x3cb53c16	0.022123378
155	0x381689e6	3.5891215e-05
156	0x3b9afcf3	0.004729861
157	0x3d2be103	0.041962635
158	0xbb291e52	-0.0025805426
159	0x3c0c621a	0.008568311
160	0x3d1cb28a	0.038256206
161	0x3d9ef21c	0.077610224
162	0x3d8a42b9	0.067510076
163	0xbd4f7d85	-0.050656814
164	0xbc4ba75f	-0.012430041
165	0xbc2173be	-0.009854255
166	0xbc4da3d7	-0.0125512695
167	0x3dc4cf69	0.09609873
168	0x3cbbdbd2	0.022931967
169	0x3d908b05	0.07057766
170	0xbed38352	-0.41311127
171	0x3c566215	0.013084908
172	0x3d1ebdc7	0.038755205
173	0x3d699ef0	0.05703634
174	0x3c11d1b2	0.008900093
175	0x3cf3f59a	0.029780198
176	0x3befd529	0.007319112
177	0x3e13944f	0.14412044
178	0xbe2e9a6a	-0.17051092
179	0x3e249fa0	0.16076517
180	0xbe20251a	-0.15639153
181	0x3cc764dd	0.024340088
182	0x3d64c08a	0.055847682
183	0xbcbc3fd6	-0.022979658
184	0xbd351f13	-0.044219088
185	0x3e817965	0.2528793
186	0x3ccd569b	0.02506571
187	0x3ba49363	0.0050224527
188	0x3d8410cf	0.064485185
189	0x3d85c9a5	0.06532601
190	0xbd57b299	-0.05266056
191	0x3c311981	0.010809303
192	0xbd2d4b4a	-0.04230813
193	0xbd25a7fa	-0.040443398
194	0xbc5d4550	-0.013505295
195	0xbe455e66	-0.19274291
196	0x3c7ac263	0.0153051345
197	0x3c705539	0.014668756
198	0x3cd4db24	0.0259834
199	0x3ce26625	0.027636597
200	0x3cb84bf1	0.02249715
201	0xbcf55097	-0.029945655
202	0x3cb37c65	0.021909902
203	0xbc3d60c9	-0.01155872
204	0x3dbc93c9	0.09207875
205	0xbe29d1cc	-0.16583937
206	0x3e3d782f	0.18502878
207	0x3da4a492	0.08039202
208	0xbcc5ae3d	-0.024130935
209	0xbd9d7d6f	-0.0768994
210	0xbd9e9e7c	-0.07745072
211	0x3c8154a3	0.015787428
212	0xbe1979c2	-0.14987853
213	0x3ca45c81	0.02006364
214	0x3c5a6334	0.013329316
215	0x3a609c68	0.0008568228
216	0x3cc4eea9	0.024039583
217	0xbd6bd2fa	-0.05757425
218	0xbc3932bb	-0.011303599
219	0x3d4daab9	0.050211642
220	0x3c2d5fa4	0.0105818845
221	0xbb0fdf26	-0.0021953075
222	0x3e88d1fe	0.2672271
223	0xbc0e978d	-0.008703125
224	0x3d9489bc	0.07252833
225	0xbe689272	-0.22712114
226	0xbe366200	-0.17810822
227	0x3d3b2bde	0.045696132
228	0x3d328064	0.043579474
229	0x3d2d6fe6	0.042343043
230	0x3a87b6fa	0.0010354214
231	0xbe80268d	-0.25029412
232	0xaf2ff663	-1.6003691e-10
233	0x3e22cc03	0.15898137
234	0xbc39c5c4	-0.011338655
235	0x3ccf5802	0.02531052
236	0x3b0a6976	0.0021119989
237	0x3e513d7e	0.20433614
238	0x3e6cb5c5	0.23116215
239	0x3dccdb92	0.10002817
240	0x3e1dbc68	0.15403903
241	0x3c45dc51	0.012076453
242	0xbd734ddc	-0.059400424
243	0xbabdb452	-0.0014473295
244	0x3e1e36cd	0.15450592
245	0xbd23ed10	-0.040021002
246	0xbca94bc6	-0.020666014
247	0x3c9633d4	0.01833526
248	0x3ddf34f3	0.10898771
249	0xbd3de610	-0.046361983
250	0x3dd47954	0.10374704
251	0xb958b695	-0.00020667382
252	0x3cc6a1e3	0.024247115
253	0xbe5a3fc7	-0.21313392
254	0x3c2b7ffe	0.010467527
255	0x3c49c960	0.012316078

val_conv1.bias f4 [2]
0	0xbd03b27d	-0.03215264
1	0xbce1f905	-0.027584562
