model/current_policy_10.model (torch_old, 591691 bytes, 15 tensors)

conv1.weight f4 [32, 4, 3, 3]
00000000: 3411 3abd 75dc 933e 81ef 2f3e 9214 9bbe
00000010: 10dd 68be 8f74 2cbf dcb7 063e 9012 643e
00000020: 7b19 753e b575 6c3c 22b4 a63d 547c f3bc
00000030: d767 cfbd c275 19be e978 01be ba4d 6a3d
00000040: 1e28 bf3b 1d3b 913c 29ae 4bbd 5b58 9b3d
00000050: bd54 263d f204 be3c 0dd3 663d bb78 c33c
00000060: f434 74bc 89c7 283d e702 513c acf4 083e
00000070: 047c 97bd 7e8f e13b 34f1 88bd 6656 5bbd
00000080: 3146 823d fd1d ac3d 74fe 85bd f4cc 21bd
00000090: 6031 85bd 1997 e2be 5018 2f3e cc3b 333e
000000a0: 8feb b63d 8d46 993e 6c9c 32be d89f 2f3e
000000b0: ca64 753d 2715 91bd 8ec9 1f3d b274 92bd
000000c0: 71aa 8fbe 0c8e 94be 7eb8 c93b bbfa 333e
000000d0: a2fe 593e bed3 333e 15e5 ecbd f719 8e3d
000000e0: b4f6 93bd edc7 b0bd 7310 e13d a851 7fbc
000000f0: af1b 153e c828 40bd 727d fd3d 9225 363e
00000100: 5154 e53d 0bd2 b7bd 124e d13d 72cf 683d
00000110: 5e9c 08bb 0aa3 32bd 4aab e7bd 4c4e 3ebe
00000120: 03d4 983d 97fc abbc 8993 52bd 12e0 3fbd
00000130: 56e3 fabc 4247 9fba 8cbc 2c3d 93f7 ac3a
00000140: d6fe 303e e495 01be 6f28 cb3e e0fa 0b3d
00000150: 1f92 273e cf03 a93e 0174 c83c 4434 dabb
00000160: 6498 583e 38ff dd3d b474 e33d 6a16 ab3d
00000170: e3cb 0e3e ba6e 2abd 503e 93bc ddaa 833d
00000180: a77e ef3c b0c7 10b9 76ed 773d 2363 cb3c
00000190: 18d2 c9bd 1da0 a3bd 7f44 a03d 8d2c bb3c
000001a0: 7d69 89bd 1ed0 003d bc8e 783d eb2c 123e
000001b0: f9a8 57be d7a9 94be 88d5 823d 4ea6 6e3e
000001c0: 8f81 b8bd a19d 273e 164f 2ebd 4834 dfba
000001d0: 69bf 3abd 6fff d33d b701 6cbd fbf4 033e
000001e0: 1109 e9bc 6152 ff3d e1c8 503e 1ce9 8a3d
000001f0: a76a dd3d 5a4e ba3d 57a0 dcbd d1f1 953d
00000200: 3f45 0d3e ad8b d23d b376 cf3c 5443 fb3d
00000210: 5a6d bebc 37d3 03bc bb89 afbc 7d92 17be
00000220: 698e 513d fb4a b53d b576 edbc a4d1 2abd
00000230: 4c24 a93d 3550 bcbc a315 e43d 4699 5abd
00000240: 414b 713e 3311 adbe d0fe 433e aeb8 3e3e
00000250: b5d5 76be 7765 593e f053 163e 9c94 c33d
00000260: f8b5 ab3e 86bc 8a3c 08cd f53d 5962 18be
00000270: 5333 ccbd 073b 3d3e 3514 b0be dd02 54be
00000280: 8fcb c23d a10d acbe 0690 783c 8394 473d
00000290: bbff 083d dca5 693d fb4f 153e 6c13 69bc
000002a0: d204 14bd ad63 013d a16e 01be a153 d03d
000002b0: 4527 20be 5df2 653d 555e 003d bfd2 9abc
000002c0: 42fc 88bc a405 f3bd 7674 9e3b a567 afbc
000002d0: 6af7 d0bd fda2 88bd c60a 603e 5b82 093e
000002e0: 9650 393d a74f afbd cc1a 1e3e 02a7 7a3c
000002f0: 0f52 b3bd 79a5 1abd e112 8f3e 5d1c c2bc
00000300: abb6 903e e79d a739 4880 bc3d dbf7 713d
00000310: a9f2 7b3d 26af 8e3e 447f 67bd 60e9 c6bd
00000320: dcba cf3b 1a55 133e c42f 1c3d 45cd 693d
00000330: aa90 97bd 0284 ec3c 93c7 1ebd f58a 2e3d
00000340: ce1c bd3d 2897 0c3e fa95 e2bd a811 343e
00000350: 24cc 06be b939 08be a11c d63c 9af3 21be
00000360: 626c ed3d 1ff9 6f3e 6423 973e 8d35 2c3e
00000370: ecf3 973e 2d2a b9be b118 e0bd 8455 d73b
00000380: 54b2 76bd 9f12 513e 4716 663e 5b32 16be
00000390: 1a7f 7dbd ea34 543e e227 21be 97dd 36be
000003a0: f347 54bd 583e 36bd ba95 063e 0209 1a3e
000003b0: 87f1 883d e09b 023e a1ab fc3d cb85 fbbc
000003c0: 9890 c43d 8280 7e3b 6ec6 febc 049f a53d
000003d0: d0a2 09be f367 b6bd 709d 903d 96ff febd
000003e0: d215 ac3d 5a45 f3bd 200a de3d 4558 4b3d
000003f0: 8744 3abe eedc 923e 43e0 8fbe 7b88 c83e
-0.045426562 0.28879133 0.17181207 -0.3028913 -0.22740579 -0.67365354 0.13156074 0.22272706
0.23935501 0.01443236 0.08139826 -0.02972237 -0.10127228 -0.14986327 -0.1264378 0.057203032
0.0058336398 0.017728383 -0.04972664 0.07585212 0.040608156 0.023195717 0.056353617 0.02386128
-0.014905203 0.041205917 0.01275704 0.13374585 -0.07396701 0.0068835607 -0.06686631 -0.053549193
0.06361044 0.08404157 -0.06542674 -0.0395021 -0.06503558 -0.44255903 0.17099118 0.1750328
0.08931648 0.29936638 -0.17442483 0.1715082 0.059910573 -0.070841126 0.039010577 -0.07151164
-0.28059724 -0.29014623 0.0061560264 0.17576115 0.21288541 0.17561242 -0.115671314 0.06938546
-0.07224789 -0.08631883 0.109894656 -0.015583433 0.14561342 -0.046913892 0.123774424 0.1778777
0.11197723 -0.089756094 0.10219969 0.05683846 -0.0020845155 -0.043612517 -0.11311968 -0.18584555
0.07462313 -0.020994468 -0.05141023 -0.04684455 -0.03062598 -0.0012151974 0.042172 0.0013196341
0.17284712 -0.12654835 0.39679286 0.0341748 0.16364335 0.33010718 0.024469377 -0.0066590626
0.21151882 0.10839695 0.11106244 0.083538845 0.13944964 -0.041609503 -0.017974049 0.06429074
0.029235197 -0.000138073 0.060529195 0.024827546 -0.09854525 -0.079895236 0.078255646 0.022848392
-0.067095734 0.031448476 0.060682997 0.14274947 -0.21060552 -0.29035828 0.06388384 0.23305628
-0.09009086 0.16368724 -0.04255589 -0.0017029131 -0.0455927 0.103514545 -0.057618823 0.12886421
-0.028446706 0.124668844 0.20389129 0.06782743 0.10811358 0.090969756 -0.1077277 0.073215134
0.13795947 0.10280547 0.025325155 0.12268701 -0.023245502 -0.008045963 -0.02142798 -0.14801975
0.051161204 0.08852192 -0.028987268 -0.041703835 0.08258876 -0.022987464 0.111369394 -0.05336883
0.23563863 -0.33802184 0.19140172 0.18625137 -0.2410496 0.21230112 0.14680457 0.09549829
0.3353727 0.016935598 0.12001997 -0.14881267 -0.09970727 0.18479548 -0.34390417 -0.20704217
0.09511482 -0.33604148 0.015171057 0.048725616 0.03344701 0.05704294 0.14581291 -0.014225822
-0.03613741 0.0315892 -0.12639858 0.10172201 -0.1563998 0.05613934 0.031339962 -0.01889932
-0.016721848 -0.1186631 0.0048356606 -0.021411726 -0.102034405 -0.066717125 0.2187911 0.13428633
0.04524287 -0.08560114 0.1543991 0.015298607 -0.08755886 -0.037755463 0.2794409 -0.023695165
0.28264365 0.0003197037 0.09204155 0.059074264 0.061510716 0.27868003 -0.056517854 -0.097124815
0.006339414 0.14387932 0.03813149 0.057080526 -0.07400639 0.02887154 -0.038764548 0.04261299
0.0923401 0.13729537 -0.11063762 0.1758486 -0.13163811 -0.1330327 0.026136698 -0.15815583
0.11592938 0.23434876 0.29519188 0.16817303 0.29678285 -0.3616499 -0.109422095 0.0065714736
-0.06022866 0.2041726 0.22469436 -0.14667647 -0.06188879 0.2072331 -0.1573787 -0.17857967
-0.05182643 -0.04449305 0.13143054 0.15042499 0.06686693 0.12754774 0.12337423 -0.030703446
0.095978916 0.003883392 -0.031100478 0.080869704 -0.13441014 -0.089065455 0.07061279 -0.12451093
0.084025994 -0.11878462 0.10841775 0.049644727 -0.18190204 0.2868418 -0.28100786 0.39166626

conv1.bias f4 [32]
00000000: ffb5 c13d 6777 173d 6437 00be a0ff 10be
00000010: 8a88 593d 6f7b a6bc 14a5 28bd 3ea3 8bbd
00000020: f38c bfbd 4650 eb3d 483c fa3d 456f b3bd
00000030: 06f7 883d 9614 0f3e 6cca bc3d f245 143e
00000040: 61ef 173d ce2d efbd 0431 92bd 53e6 66bd
00000050: 8a63 303d c3be 00be 6399 91bc bb8e 57be
00000060: fa16 183e 3418 0a3e cc91 f5bc b230 2a3d
00000070: b372 1cbe c0ea c7bd e1e8 38be 1c2a 11be
0.09458541 0.036979105 -0.1252113 -0.14160013 0.05310873 -0.02032253 -0.041173056 -0.06818245
-0.09353056 0.1148992 0.12218529 -0.08761457 0.06687741 0.13972697 0.092182964 0.14479807
0.037093524 -0.116786584 -0.07138255 -0.056371998 0.043063678 -0.1257277 -0.017773336 -0.21050541
0.14852515 0.13485795 -0.029976748 0.041550346 -0.1527813 -0.09761572 -0.18057586 -0.1417622

conv2.weight f4 [64, 32, 3, 3]
00000000: 997f 9dbc a839 88bd 4607 3a3d 0bee 283d
00000010: 9749 6d3c 1539 063d ff39 043b 2e0d 93bc
00000020: a8d2 823c 2dd6 05bd 431a 293c c8ec ba3c
00000030: 8d0b 333c 4e9f 0439 dd28 a4bc 3171 753d
00000040: 134e 123d aa7a e7bc 099c 6a3d 7429 7cbd
00000050: 1786 88bd d088 253c 7954 25bd c0d3 d3bc
00000060: 9620 bebc bc07 7f3b 0c17 84bd 8b00 3fbd
00000070: 5dfc 613d 9307 0c3c 9094 0cbd 08c3 89bd
00000080: 3b34 18bd 47ac c33c 1886 78bc 5ab4 dbbc
00000090: beb9 e8bc 0e08 e93c d26b 663d 4534 98bd
000000a0: f52b 893d 32a2 a03d 7d63 a7bc 5c5c 6bbd
000000b0: 6067 053d 5110 903d df48 a03b 1c0b d1bd
000000c0: b82c 1e3b 0785 19be c95f f63c 2355 b3bd
000000d0: 0225 8bbd ee39 42bd b94f 033e dc85 ca3c
000000e0: 3fb4 1d3d 87a9 8ebc 1c0e a83c 9e70 0cbc
000000f0: f69d 7bbd ff08 21bc 6ef3 e63c 7d1f 99bd
00000100: 0e76 79bc 2e37 473c 085e e83b a432 d4bb
00000110: e050 cf3b 2ba0 55bd fa31 5dba 5f7f 243d
00000120: 9500 3dbd e592 093c 23ea 95bd fe6b 393c
00000130: 66f4 8dbd 7c6a 6b3d 12b0 043d 1714 60bd
00000140: 8d19 93bd cc6f 293d 8743 a13d cd90 4c3b
00000150: 59ef 443d a998 d73b 3ee7 dabc 7bf5 523d
00000160: 0b2c 06bb 9e06 f5bc 2e2d b0bd 1cb9 e83c
00000170: df1e 28bd 479e 23bc 93b9 f6bb 0284 b0bc
00000180: 9d83 573d dcb6 00bc 30d4 d63c 7eaf 87bd
00000190: 8913 513d 9589 213c 6cfb 8bbd 561a b4bc
000001a0: ebf3 4fbc ffe2 8c3d 215d 3bbd deb7 4cbd
000001b0: 1677 903c 0166 dfbc 1880 5f3d 92e5 87bd
000001c0: 8aee a63c 3c68 a5bb 11fc 613d 6ca8 d1bb
000001d0: f6b4 56bc 5580 153d 0e79 f63b b2b5 ed3c
000001e0: 99cf 96bc 6009 9ebd 9e72 60bd 802c 353a
000001f0: 8905 abbd fafc 0f3d dc24 0bbd 37d8 71bd
00000200: 4fb7 9a3d f57b 8f3d 8f96 61bd 1bb1 d13b
00000210: 34e2 e3bd d16a 30bd 9a3e 543c 657e a53d
00000220: ac05 3a3d 56e4 9d3d fc51 feba f6df f53c
00000230: a8fa 093d c7fc e93c 906f b63c 2748 f0bb
00000240: 1d01 8c3d 61d1 63bc bd06 063d f771 083e
00000250: 8c7b ffbb de3c 04bd a8f6 a8bd c921 b33c
00000260: b342 34bc 5af8 953d 8fdb 043e b189 8cbd
00000270: 6571 423c 4645 c83c 99d5 dcbc 75d1 733c
00000280: e971 f2bd 46d8 b8bb cf66 ad3d daea c33d
00000290: 102c 8cbd 961a 3e3d c841 1ebd 3815 fe3c
000002a0: 367d e6bc 558e e5bd d361 5cbc 48b9 b33d
000002b0: 92c9 57bd 4c4e 383d b6f7 78bd 97b7 66bc
000002c0: 3284 aabd 7f52 0a3b d529 ae3c 70b3 d4bc
000002d0: d701 dc3c c69f 1f3d c2c5 9b3c 4e12 483d
000002e0: 2f87 d1bc 72ce a7bc 66c9 1b3c 089d 00bc
000002f0: 9379 f9bc 1af6 0bbd 6149 0c3d 90b0 cdbc
00000300: 1cde a4bd 0f30 e13c db13 c9bc 11d7 f43c
00000310: faf1 85bc bb88 203d 61d7 273d 6ac7 63bd
00000320: 51e0 f0bc 4601 f2bd 6c7c 0a3c 8c51 90bd
00000330: 1eaa c6bc eac7 6ebd 0ffc c1bd c0f4 c53d
00000340: 2b89 56bd 02b0 01bd e557 9a3d c3c0 e9bc
00000350: 050e 9fbb cd2e c4bc e3aa 313d 0a2b 933d
00000360: a682 733d 033f 403d 6292 c23d e5bb a1bb
00000370: 43d6 303d b510 103d bc55 7d3d c147 213d
00000380: cc5b c83d 7da1 893d 9c3e 953c 2801 633d
00000390: 1ed1 ffb9 3700 893b af3f 8f3b 1a59 70bd
000003a0: a3f6 963d 02b4 063d 5e87 223e 2018 6bbc
000003b0: 34c8 82bc aa81 b4bc a3e7 06bc c62e 8bbc
000003c0: d616 773c 0951 e3bd 4e28 033d 1d0c d33c
000003d0: 4805 cfbc d7de 3a3d ab31 cdbd 24c0 cc3c
000003e0: 17ee 3c3d 25e6 563c afcc 873d 8b6c 523d
000003f0: f241 3c3d 9567 7a3c bc72 e2bb 998f daba
-0.019225882 -0.06651622 0.045417093 0.04124264 0.014482877 0.03276928 0.002017617 -0.01795062
0.01596959 -0.032674957 0.010321203 0.022817984 0.010928047 0.00012647847 -0.020039016 0.0599224
0.03571899 -0.028256733 0.057277713 -0.06156297 -0.066662006 0.010103419 -0.040363763 -0.025857806
-0.023208898 0.0038914522 -0.06449708 -0.046631377 0.055172313 0.008546728 -0.034321368 -0.067266524
-0.037159186 0.02388586 -0.015168689 -0.026819397 -0.028408881 0.028446224 0.05625517 -0.074318446
0.06697837 0.07843436 -0.020433182 -0.057461128 0.03256929 0.07034362 0.0048914994 -0.10207197
0.0024135541 -0.14992152 0.03007497 -0.08756473 -0.06794168 -0.047418527 0.1282338 0.024722032
0.038501974 -0.017414821 0.02051454 -0.008571772 -0.06142994 -0.009828805 0.028192248 -0.07476709
-0.0152259 0.012159152 0.0070912875 -0.0064757634 0.0063267797 -0.0521547 -0.0008437928 0.040160533
-0.046143133 0.008396839 -0.07320049 0.011317251 -0.06931381 0.0574746 0.032394476 -0.05470666
-0.07182608 0.041366383 0.07874208 0.0031214238 0.048079822 0.006579478 -0.026721593 0.05150364
-0.002047303 -0.029910382 -0.08602367 0.02840858 -0.041045066 -0.009986467 -0.0075294464 -0.021547321
0.05261575 -0.007856097 0.026224226 -0.06625269 0.05104402 0.009859462 -0.06835064 -0.021985214
-0.012692432 0.068792336 -0.04574311 -0.049980037 0.01763491 -0.027270319 0.05456552 -0.06635584
0.020377416 -0.005047826 0.05517203 -0.0063982513 -0.013104668 0.03649934 0.007521755 0.029017303
-0.018409537 -0.07716632 -0.054796807 0.0006911233 -0.08350665 0.035153367 -0.0339707 -0.05904409
0.075544946 0.07006065 -0.055075224 0.0063992864 -0.11127129 -0.043070618 0.0129543785 0.080807485
0.045415565 0.07709567 -0.0019403095 0.03001402 0.03368631 0.028562916 0.022269994 -0.00733282
0.0683615 -0.0139049 0.03272127 0.13324724 -0.0077967104 -0.03228461 -0.08250171 0.021866696
-0.01100223 0.0732276 0.1297438 -0.068622 0.011867856 0.024447095 -0.02695732 0.014881481
-0.11838133 -0.005641016 0.08466875 0.09566279 -0.06844342 0.046412073 -0.038636953 0.031015977
-0.028135877 -0.11208788 -0.0134510575 0.08775574 -0.052682467 0.044996545 -0.06078311 -0.014081857
-0.083259955 0.00211063 0.021260181 -0.025964469 0.026856346 0.03897073 0.019015197 0.04884558
-0.025577156 -0.020484183 0.009508466 -0.007849939 -0.030453479 -0.034170248 0.034249667 -0.025108606
-0.080501765 0.027488736 -0.0245456 0.029887708 -0.016350735 0.039192896 0.040976886 -0.055610098
-0.029403837 -0.11816649 0.008452516 -0.07046804 -0.02425104 -0.05829612 -0.094719045 0.09665823
-0.052376907 -0.031661995 0.07536296 -0.028534299 -0.004853966 -0.023948098 0.04337586 0.071859434
0.059450768 0.046935093 0.095005766 -0.004935729 0.043173086 0.035172183 0.06184934 0.03937507
0.09783134 0.067202546 0.018218331 0.055421025 -0.00048793195 0.004180934 0.0043716053 -0.058678724
0.07371261 0.032886513 0.15871951 -0.014349014 -0.015964605 -0.022034485 -0.008233937 -0.016990077
0.015081128 -0.110994406 0.03202086 0.025762612 -0.025271073 0.045622673 -0.10019239 0.024993964
0.046125498 0.013116394 0.06630837 0.051373046 0.045961328 0.015283485 -0.00691065 -0.0016674876

conv2.bias f4 [64]
00000000: 0db9 30ba 12c2 cc3c b45a 62bd 1469 b1b6
00000010: b81b 80bd 84fa 9cbc 29be 973c 9c16 64bb
00000020: 5d5c 67b5 169f a9bb 0f29 cbb6 3df8 60bd
00000030: 7203 84bc 796c e1bc ee92 2cbd f88f 2e3c
00000040: 0767 a4bd d909 a7bd 4ec6 b13c d8a4 06bd
00000050: b609 a8bc 475c 0fbd c260 b23a b501 05bc
00000060: 7b21 253c a236 debb 7b7a 51bc c705 1fbc
00000070: 9803 8e3c 2361 dfbc deec 3ebd ddbd 06be
00000080: e819 48bd 4cf7 40bd 9c87 69bd d99f b53c
00000090: 9158 40bd eb5d 3dbc bd55 18bd 6d73 1ebd
000000a0: f989 0aba 2e13 56bd 987e 5ebc 0849 babc
000000b0: d4fe fb3c 1883 babb 976a cebc 821a f33c
000000c0: ccf1 aeba d8c6 49bd 89e9 97bd b800 a3bc
000000d0: 9517 09bd 81a4 b6bd b8fe 62bd eb51 acbb
000000e0: e003 9c3d 2a6c b9bd 3a8d 1abb 84b2 5bbd
000000f0: ab1d 2e3d c9a5 bebd 9048 4bbd 9700 2cbc
-0.0006741442 0.024994884 -0.055262282 -5.2872438e-06 -0.06255287 -0.019162424 0.018523293 -0.0034803515
-8.618861e-07 -0.005176435 -6.0546513e-06 -0.05492424 -0.016114924 -0.027517544 -0.04213231 0.010654442
-0.080274634 -0.08156175 0.021701004 -0.03287205 -0.020512443 -0.035000112 0.0013609158 -0.008118083
0.010078783 -0.006781415 -0.012785549 -0.009705967 0.017335698 -0.027267998 -0.046612613 -0.13158365
-0.04885283 -0.04711084 -0.057014093 0.022170948 -0.046959464 -0.011558036 -0.03719114 -0.038684297
-0.0005284842 -0.052264385 -0.013579987 -0.022739902 0.03076116 -0.005691897 -0.02519731 0.029675726
-0.0013347208 -0.049261898 -0.0741759 -0.019897804 -0.033469755 -0.089180954 -0.0554187 -0.005258789
0.076179266 -0.09053834 -0.0023582713 -0.053637043 0.042508762 -0.09308965 -0.049629748 -0.0104981875

conv3.weight f4 [128, 64, 3, 3]
00000000: f090 f23d 3cce 893b a671 913b 0a08 7abc
00000010: 729a a7bc 0e03 b03c 6f6e 60bd 8155 7abc
00000020: edfc a1bd d777 723d 8fcc e43c eba1 27bd
00000030: 8730 87bd f9ce ba3d ef8b 9bbc 9287 b03d
00000040: ae17 51bc 8ed6 01bd 5d52 5abd 2f6f 6cbd
00000050: 5534 103d c593 a1bd 4a22 0b3e 1a92 c4bc
00000060: 5b0e 813e bfad 84bd 1c22 723e cefb 1695
00000070: f991 8815 5ee9 9c14 4223 1415 8580 2415
00000080: 3fbe f094 ae41 2194 0b9e 9595 b200 0015
00000090: 1358 d03d 4755 34bc addf 66bb 77ee 8cbd
000000a0: 5afc 2ebe 0bd1 bebc b9bc 193c 9d44 03be
000000b0: e8d6 623d 5020 af14 e867 aa13 ad50 1697
000000c0: b1f4 061d d40d b59c d8b8 1a9b bc66 2b97
000000d0: c952 3a1d 5361 331c d8ae 53bc de2d 443d
000000e0: 105e b03d 3e1e eb3d 1c61 523d 4a42 ecbc
000000f0: ecd4 673d ff48 fbbd 5610 683a e3a0 d4bb
00000100: e504 8fbd 4185 88bd ca59 c43c fa17 58ba
00000110: 8157 18bd 4432 89bd dcba eabc 840e 053d
00000120: 0027 f311 a0c1 4a15 76f7 0c15 9820 5193
00000130: 97e2 8995 1c04 8494 8483 1814 bd31 5494
00000140: 0087 6715 25c7 e63b d476 04bc 2665 383d
00000150: ac23 8a3c 0431 363d 3826 7ebd db2d f0bc
00000160: f31f 48bb 6bc6 68bd 4e69 6394 dfc2 5e15
00000170: 7611 9a94 9c52 9c93 94e5 2515 702b cb14
00000180: 8763 4d94 df74 bc94 e04e b113 7dd3 0ebd
00000190: c95b e0bc 12a5 e1bc 6cb7 1f3d 2a84 c1bd
000001a0: f814 bfbd 10e7 80bd 9bad 37bd c3b0 2dbe
000001b0: d3f6 a0bd 3b37 ea3d e9ee ebbc 6895 9e3e
000001c0: 3583 96bd 6397 74be bb0e 60bd ffda b33e
000001d0: 14e9 18bd 680e 66b3 1f62 14b7 6683 ad2f
000001e0: 1ec4 6fb2 eec4 97b6 035e 87b1 caa7 c732
000001f0: 0d0a 17b8 a931 1a31 0254 91be 299d 433c
00000200: d872 4abb 878b 68bd 1a89 d6bd 741f 64be
00000210: 0dd5 fbbd 4479 823d 2f98 fc3d d4bb 15be
00000220: fb07 eb3d 222c 9bbd 789e b83d cb9a 80bd
00000230: f2c5 893d 5cfe a0bd 29c1 223e 6697 3ebe
00000240: 0374 663e c68b 0d3d 586a 923d 599c 89bd
00000250: 2a85 193d 0513 833d 956b 65bb c3f4 92be
00000260: 269d d53d 2a60 833b 49ed 773c 8fb3 c43c
00000270: 7aa0 253d a1a8 993d d00c a4bc 60ca 793c
00000280: eb9e 883d 4521 643d 7a75 773d 2325 bf3d
00000290: 3257 323d 433a 053d d9ce 56be 37fe 6fbd
000002a0: f0da f1bd 0cb3 633b b899 36bc e114 01ba
000002b0: 39c7 b23c 0c97 983c 7c6f bd3c 1819 223b
000002c0: 2310 053c 57e7 4d3c 0ff4 c73c a792 bf3c
000002d0: 4a04 22b5 e824 8038 1ca9 e53a 7e74 e838
000002e0: 5047 f239 5cb4 c83a 4169 5e39 dcd4 5d3a
000002f0: ce4a 063b f1fd 603d 35ed 0f3d 1894 22bd
00000300: 445b c73b 2414 8d3c ef5a ecbc 42d3 833c
00000310: f866 b73c 313a 773d f330 873e 062e 13bd
00000320: 79fa 56be 02f6 1e3e 29fc acbe f6a3 08be
00000330: a3cc fbbc 7087 af3d 56ad 70be afa1 2bbe
00000340: 1df0 aebd 0c55 72bd 0340 03bd 18d7 54bd
00000350: d5e2 21be fb3d 3dbe 3fda 3ebe 9020 4abe
00000360: e3eb 2fbe 97c8 d4bc 490e ff3d cd4f 723d
00000370: ecdd 18bc 7e27 2b3c 8a92 9cbb 6d29 b8bd
00000380: c91b a93d 1c99 613c 7653 db3c 6e77 bdbc
00000390: 3630 9abd 3e9e 65be 18a8 4ebe 9a04 b7bd
000003a0: 13f4 d3ba 97e2 1ebc cd5c b13d 83ef a4bd
000003b0: 4a17 f73d ad7f e7bb b5a0 513d 350c 973d
000003c0: 49c2 eaba 8cfe ca3d 24ba ac3c 4ee7 2e36
000003d0: c146 e3b7 2acb d0b4 1b8d d1b7 2ba8 b738
000003e0: d0bc d9b7 61fa 13b6 2091 abb8 1f06 b937
000003f0: ec45 d63c f22c 64bd 2a81 d53c 111a afbd
0.11844051 0.0042054933 0.004438597 -0.015260706 -0.020459387 0.021485832 -0.054792818 -0.015279175
-0.0790957 0.05919632 0.027929572 -0.0409259 -0.06601053 0.09121508 -0.018987624 0.08619608
-0.012761993 -0.031698756 -0.053301204 -0.05772322 0.035206158 -0.07889513 0.13587299 -0.023995448
0.25206265 -0.06478452 0.23645824 -3.0490898e-26 5.5160267e-26 1.5844022e-26 2.9916175e-26 3.322092e-26
-2.4308846e-26 -8.141376e-27 -6.042997e-26 2.5849943e-26 0.10173049 -0.01100666 -0.0035228536 -0.06881421
-0.17088452 -0.023293039 0.009383374 -0.12819143 0.05538073 1.768323e-26 4.3016493e-27 -4.856944e-25
1.7861255e-21 -1.198115e-21 -1.2798308e-22 -5.538275e-25 2.4659694e-21 5.935192e-22 -0.012920104 0.047895305
0.08611691 0.114803776 0.051362142 -0.028840203 0.056599542 -0.12269782 0.0008852532 -0.0064889058
-0.069833554 -0.06666041 0.023968596 -0.0008243319 -0.037192825 -0.066990405 -0.028653555 0.032484546
3.8362676e-28 4.0946318e-26 2.8467987e-26 -2.6395579e-27 -5.5691355e-26 -1.3330215e-26 7.699976e-27 -1.0713074e-26
4.6756575e-26 0.007042783 -0.008084971 0.045018338 0.016862713 0.04448034 -0.062048167 -0.02931874
-0.0030536621 -0.05682985 -1.1481339e-26 4.498627e-26 -1.5556913e-26 -3.9461396e-27 3.350259e-26 2.0514895e-26
-1.0369483e-26 -1.9029246e-26 4.475886e-27 -0.03486966 -0.027387517 -0.027544532 0.038993284 -0.094490364
-0.09330171 -0.06294072 -0.044843297 -0.1696196 -0.07859578 0.114363156 -0.028800445 0.30973363
-0.073492445 -0.23885874 -0.054701548 0.35128018 -0.037331656 -5.356415e-08 -8.844333e-06 3.156188e-10
-1.3956223e-08 -4.5230763e-06 -3.939705e-09 2.324295e-08 -3.6010566e-05 2.2438178e-09 -0.28384405 0.011939325
-0.0030891206 -0.05677369 -0.10475369 -0.22277623 -0.122964956 0.06370786 0.12333714 -0.14622432
0.114761315 -0.07576777 0.090146005 -0.062795244 0.06727208 -0.07861015 0.15893997 -0.18612441
0.22505192 0.034557126 0.0714919 -0.06719274 0.03748051 0.06400112 -0.003500675 -0.28702363
0.10430364 0.0040092664 0.015132257 0.024011401 0.040436246 0.075028665 -0.02002564 0.015246004
0.06670936 0.05569579 0.06041477 0.09333255 0.043540187 0.032526266 -0.20977344 -0.058592048
-0.11809337 0.0034744171 -0.011145048 -0.00049240707 0.021823512 0.018626712 0.023124449 0.0024734195
0.008121523 0.012567363 0.024408368 0.023385359 -6.0355944e-07 6.11039e-05 0.0017521712 0.000110843204
0.0004621097 0.001531254 0.0002121078 0.00084621995 0.0020491364 0.054929677 0.035138328 -0.039692014
0.0060838778 0.017221518 -0.028851954 0.016091947 0.022387967 0.06035823 0.26404533 -0.035932563
-0.20993985 0.15523532 -0.33786133 -0.13343796 -0.030737227 0.085707545 -0.23503622 -0.16760896
-0.08541892 -0.05916314 -0.03204347 -0.051962942 -0.15809186 -0.18480675 -0.18637942 -0.19738984
-0.17179827 -0.025974555 0.124538966 0.059158135 -0.009330254 0.010446427 -0.004778211 -0.08992276
0.08257253 0.013769414 0.026773196 -0.023128238 -0.07528727 -0.22423646 -0.2018131 -0.089364246
-0.0016170762 -0.009697578 0.086602785 -0.08053496 0.12064989 -0.0070647807 0.051178653 0.07375375
-0.0017910685 0.09911832 0.021084853 2.6062658e-06 -2.7093456e-05 -3.889084e-07 -2.4980449e-05 8.757444e-05
-2.5956339e-05 -2.2050447e-06 -8.180947e-05 2.2056569e-05 0.026156388 -0.055706926 0.026062567 -0.08549894

conv3.bias f4 [128]
00000000: 05e5 01bd e4e0 d43c 360a b03c 4c03 05b5
00000010: db18 07bd aa54 ccbc cfc8 74b6 e62a c7b9
00000020: 1dcd 863d 2f71 82af 672f f03b 350d e73d
00000030: d7a1 7ebc e4a6 d5bc d2fa 00b0 f6d0 efbc
00000040: 2146 efbc ae20 a83c 2886 95ba 94c2 76bd
00000050: 46b1 9dbc 74da c33c 0216 c7bc e82a 9fbb
00000060: 3e52 05ba 417f bc3d 5f5d ceba 2c55 05bb
00000070: 5e8c 173d d6c3 d8bb 9492 743d ee0c 8b3d
00000080: 755d 343d 248f 723c 2b2e e7ba c3c0 ebbc
00000090: 09da a7bc 251b 8ab7 5661 6bbd f913 53ba
000000a0: 7086 57bb 3fb1 3f3c 6268 65b8 91cf e63c
000000b0: 0455 3ebc cfc2 d8bc a809 e5ba 7b40 a2bc
000000c0: 9cbe 32bc 45e6 97b6 dc79 863c 773a a2bc
000000d0: 53b7 a73a 2d42 a93c 8324 63bc 264f 0b3a
000000e0: 7a57 323b d921 2a3d 1fd2 bdb3 4725 14ba
000000f0: c64e 70bc 62ea ceb7 a2e6 383c c4d7 e9b7
00000100: 287f 01bc 067d 84bb 1c99 e3bc cb2c 143c
00000110: e773 42b0 e520 fd3b 8768 133d d74f 0dbd
00000120: c1b2 27bc 54ff b6bc f19d 043d 21aa 243d
00000130: 3032 1fbc 84dd bdbc 9129 9cbd 8534 e2bc
00000140: 7d99 66ba b02c 1d3d a34a 27bd 3b53 d63c
00000150: 645c fb3c cbf4 a1b7 4928 8fba 7b80 4eb7
00000160: 0eb1 263d 9447 7cbc cc0a 69b7 29cd 903b
00000170: 5ad5 82bc 2cb2 38bd 08cd 82bd e2fb 84bc
00000180: bf1d b43c 693d 39bc b23e 0ab8 fbe9 46bd
00000190: 1f70 88bd 6dc6 82bb 936c 18bd ad90 943d
000001a0: 166b 4cbd fa79 71ba 864a 9abc 5d4b 13ba
000001b0: 60a0 3cbc 6017 12bc 31ab a4bb cadb ca3c
000001c0: c8ac 203b 255c 113d 33cf a8bd 2791 9ebc
000001d0: f87e 423d bcfc 8abd 6e6a 1fbd bfd0 79b9
000001e0: f74a 7abb 0651 2bbb 7b4b 1eb2 5dd0 d63c
000001f0: 47f8 61bc 6e05 8d3d fa0b 32bd 6827 32bc
-0.03171255 0.025986142 0.021489244 -4.955116e-07 -0.03298269 -0.024942715 -3.647572e-06 -0.000379882
0.06582091 -2.3727284e-10 0.0073298695 0.11281816 -0.015541515 -0.026080556 -4.6922566e-10 -0.029274445
-0.029208245 0.020523395 -0.001140778 -0.060244158 -0.01924957 0.023907878 -0.024302486 -0.0048574097
-0.00050858024 0.09203959 -0.001574438 -0.0020344956 0.0369991 -0.0066151423 0.0597101 0.067895755
0.04403444 0.014804635 -0.001763766 -0.02877844 -0.02048971 -1.6463522e-05 -0.057465874 -0.00080519874
-0.0032886527 0.011699974 -5.469507e-05 0.028175147 -0.011616949 -0.02646008 -0.0017474191 -0.019806137
-0.010909703 -4.5269576e-06 0.016415529 -0.019803269 0.0012795724 0.020661438 -0.013863686 0.0005314223
0.0027212785 0.041536186 -8.839219e-08 -0.0005651307 -0.014667219 -2.4666257e-05 0.011285456 -2.7876238e-05
-0.007903852 -0.0040432243 -0.02778297 0.009043883 -7.0741496e-10 0.0077248686 0.035988357 -0.03449997
-0.010235489 -0.022338547 0.032377187 0.04020131 -0.0097165555 -0.023176916 -0.07625116 -0.027612934
-0.0008796675 0.038372695 -0.040842663 0.026162734 0.030683704 -1.9306686e-05 -0.001092204 -1.2308471e-05
0.040696196 -0.015397925 -1.3890396e-05 0.0044189882 -0.015970875 -0.045091793 -0.06386763 -0.016233388
0.02198684 -0.011306145 -3.2960153e-05 -0.048562985 -0.066620104 -0.0039909394 -0.03721292 0.07254157
-0.049906813 -0.00092115963 -0.018834364 -0.0005618835 -0.011512846 -0.008916706 -0.0050252904 0.024763007
0.0024517048 0.035488266 -0.08242645 -0.019356323 0.047484368 -0.067864865 -0.03891986 -0.00023824254
-0.0038191655 -0.0026140823 -9.213973e-09 0.026222402 -0.013792104 0.06885801 -0.043468453 -0.010873653

act_conv1.weight f4 [4, 128, 1, 1]
00000000: 35c2 b43e f224 f0bd ae8f 02bd 6513 2615
00000010: d5bb d4bc f15e 193c a250 3a27 b332 f13a
00000020: a975 babc 328e 4c15 b8e4 2f3d ed6e 05bd
00000030: 0cfe 1cbd 9f7c d5bc de3d 9795 0f7a b33c
00000040: 385b d627 3eba 103d bb58 eabb 85f9 caba
00000050: 0a2c 463c 18c5 c73d d76d 0a3c 6615 17b8
00000060: 7efc 0038 5280 1d3d 5c0e eebb 8c71 d096
00000070: 12cf 343c 08e3 c23d 708b 713d c7ef d23d
00000080: e42c 94bd a592 c63d fade 5816 6eee 5d3b
00000090: 87cc 0e38 8d87 8995 3152 ef3c 0a42 0dbc
000000a0: 4ce6 0ebd cb9c 3c3d 1e25 cfbb c191 d5bd
000000b0: f439 4fba 5c5f 8abc c421 f712 5249 123e
000000c0: 943c 253c 604b 1f93 5f6f d73d 6eae 8e16
000000d0: efad 1d3e 2f0e b5bd 4814 86bb c979 92bb
000000e0: d395 403c ae3f a93d d9a3 1f95 f276 7c16
000000f0: c281 b13d 7707 de95 be90 ce3d 46e4 9996
00000100: 7623 f33d 2d52 51ba d600 b63d 629f 51bc
00000110: 1789 ba15 b4ab 6ebc 2d4f f13d 02fc abbc
00000120: 1421 04bb a381 a53d bd35 b03d c5c7 84bb
00000130: 60fc 4133 fcfb 34b9 c245 b03d d653 8f3c
00000140: 391c 04ba e67f 00bd c1e6 b03c 7990 c5bd
00000150: 9660 a8bd a8e8 bc16 2ea7 7836 63ac 4bba
00000160: e864 81bd 4a61 56bd 9fef 5b9f fa27 303d
00000170: 0c53 193d e135 b1bc fefc ab3e a43a 213c
00000180: 7e0e fc3d 5f59 7b3e 75fa 5ab9 439f cf3d
00000190: f27b 1b3e 62e9 7c23 053b 813d 9fce 823d
000001a0: bff7 ea3c 889c e613 89e1 1c3e 6cd4 2438
000001b0: c918 26be 4322 d63e def0 053d b2ca 773d
000001c0: 72dd 1d3c c7ea 82bd 57ad 253e 34b9 9f15
000001d0: 5440 943c b214 213e dd82 063e 93d7 b295
000001e0: bb96 0fbd a6de c6bb f455 0816 5fc6 a13c
000001f0: 4f20 303b 7a72 b4bd 7fb3 b23c e51e c93a
00000200: 7d03 c43e 26ac bc3b f87a 583e 6464 6295
00000210: 548c 1b3a 0e45 b73b 561f 90a5 1b37 903b
00000220: f15a 95ba 7914 eb15 a1ff cf3e 209c 0a3e
00000230: bc81 973d d2b8 be3d 22f4 f194 48c5 8c3c
00000240: 6096 53b7 b0cf a3bd a8a5 8f3c 1cca 863e
00000250: 23fa 353c a2f7 473e e814 2d3e becd 913a
00000260: 9980 2f3b fe42 8d3d d2df 5dbc 752e 2019
00000270: 7c13 e7bc 3343 b23d 6d49 e2bd a941 f53d
00000280: 92f8 71bd 805d 3c3e 4c48 ad97 441c 023d
00000290: 13a6 4a3b ebf4 c495 3363 443d ecd5 39bb
000002a0: c129 e13c fe98 d93d 94d9 76bb b8bd 3cbd
000002b0: 098e a43a 6d6e 64bc ec2d 0096 be63 8b3e
000002c0: c64f 633c 15c8 0916 a413 0a3e 68c0 e51d
000002d0: 09e4 413e c34d de3c f555 ebbc 2d8a 7bbd
000002e0: eafd bb3e 03b4 053e e384 3595 f637 8816
000002f0: 585b 80bd 83c8 b096 2a4b 603e 69d1 3ba1
00000300: 4bea 923a 0aef 933b 713b a33d f709 fdbc
00000310: 5d56 2e1a c470 99bc e1d6 75bd 0c9a 95bc
00000320: 9558 76bc 5416 2b3d 9552 a03d 3b9b 8fbd
00000330: 96fb 8bba 9c08 63ba f40d 473d d9a7 76bb
00000340: e3d0 c3a2 f4de 243e 3fba 953e a5cf ac3d
00000350: 356a 55bd 0e11 fc14 823e d43a 52a5 8a3b
00000360: 7508 b53d b43a 873d 1a0f 6339 9752 5e3d
00000370: 4569 11bb a504 59bd 386a a83e f3bf ac3b
00000380: 1e4e 4d3d 3ec0 a13e d0a9 1b3c 2315 883b
00000390: c3d9 733e 3a0f 54b4 d0c8 babd 48c6 323b
000003a0: 0468 053e f5bd 78a6 0b22 843d 2e3a bbbb
000003b0: a020 aebd c868 d73e de8d 89bc 1f27 7d3d
000003c0: 5a44 20bc 7065 2a38 1c7b 07be e96e 97a5
000003d0: 6a01 26bd d7a7 c63d ff5a 24bd 4819 5894
000003e0: 9367 a0b9 a93b d4bc 97ba 9d95 e137 a8bd
000003f0: 263c bf39 86ca 733d 3f86 fd3c 88ec 42bc
0.35304418 -0.11725797 -0.031875305 3.3538733e-26 -0.025968472 0.009361015 2.5856396e-15 0.001840195
-0.022761183 4.1309644e-26 0.042942733 -0.03257649 -0.038328215 -0.0260604 -6.1086024e-26 0.021908788
5.949583e-15 0.035333864 -0.007151691 -0.001548574 0.012095461 0.097543895 0.008449039 -3.6021134e-05
3.075273e-05 0.038452454 -0.0072648954 -3.367587e-25 0.011035698 0.09515959 0.05897087 0.1029964
-0.07235125 0.09695939 1.75187e-25 0.003386404 3.404592e-05 -5.554772e-26 0.029213997 -0.008621702
-0.034887597 0.046047967 -0.0063215634 -0.10428191 -0.0007905059 -0.016891174 1.5596215e-27 0.14285782
0.010085244 -2.0105784e-27 0.10519289 2.3051418e-25 0.15398382 -0.08840596 -0.004091773 -0.0044700843
0.011754471 0.08264099 -3.2239047e-26 2.039393e-25 0.086673275 -8.9676863e-26 0.10086201 -2.4862544e-25
0.11871998 -0.00079849624 0.08886878 -0.0127943475 7.534109e-26 -0.014567304 0.1178268 -0.02099419
-0.0020161318 0.08081367 0.08604 -0.0040521347 4.5165848e-08 -0.00017260009 0.08607055 0.01749603
-0.0005039606 -0.031371973 0.021594407 -0.096466966 -0.08221547 3.0519865e-25 3.7052191e-06 -0.0007769523
-0.063180745 -0.052338876 -4.6573264e-20 0.043006875 0.037432715 -0.021632137 0.33591455 0.009840641
0.12307452 0.24545811 -0.00020883403 0.10137799 0.15184 1.3710368e-17 0.06310085 0.06387066
0.028682588 5.8214514e-27 0.1532041 3.929848e-05 -0.16220392 0.41823015 0.032700412 0.06049604
0.009635316 -0.063924365 0.16179405 6.451179e-26 0.01809708 0.15730551 0.13135858 -7.2233744e-26
-0.035055857 -0.006069022 1.1013115e-25 0.019747911 0.0026874726 -0.08810897 0.021814106 0.001534429
0.3828391 0.0057578264 0.21140659 -4.571953e-26 0.0005933691 0.0055929488 -2.5001252e-16 0.0044011003
-0.00113949 9.4948044e-26 0.40624717 0.1353612 0.07397792 0.093125954 -2.4431075e-26 0.017183915
-1.2611592e-05 -0.079985976 0.017535046 0.26326072 0.0111070005 0.19528058 0.16902506 0.0011123938
0.002677953 0.06897543 -0.013542132 8.281188e-24 -0.028207533 0.087042235 -0.11049161 0.11975414
-0.059074946 0.18395042 -1.1198113e-24 0.031765237 0.0030921742 -7.955018e-26 0.047946166 -0.0028356267
0.02748573 0.10624884 -0.0037666308 -0.046079367 0.0012554537 -0.013942343 -1.0354248e-25 0.27224535
0.013874 1.1129907e-25 0.13484055 6.081474e-21 0.18934645 0.027136689 -0.028727511 -0.06141107
0.3671716 0.1305695 -3.6657488e-26 2.2007301e-25 -0.062674224 -2.8560874e-25 0.21903673 -6.3635216e-19
0.0011208741 0.0045145797 0.07970322 -0.03088854 3.605212e-23 -0.018730529 -0.060019378 -0.018261932
-0.015035768 0.04176934 0.07828251 -0.0701203 -0.0010679837 -0.00086606457 0.04859729 -0.0037636666
-5.3076023e-18 0.16100675 0.29243657 0.084380426 -0.05210324 2.5452224e-26 0.0016192945 0.0042311335
0.08839504 0.066029936 0.00021654033 0.054277983 -0.002218799 -0.052982945 0.32893538 0.0052719056
0.050123326 0.31591982 0.009500936 0.0041529103 0.23813538 -1.9749578e-07 -0.09120333 0.002727883
0.1302796 -8.6299724e-16 0.06451806 -0.0057137227 -0.085023165 0.4207213 -0.01679128 0.061804887
-0.009781921 4.062563e-05 -0.13230556 -2.626948e-16 -0.040528692 0.09699982 -0.040125843 -1.0910199e-26
-0.00030594747 -0.025907354 -6.370618e-26 -0.08213783 0.00036475173 0.059519313 0.030947803 -0.011897214

act_conv1.bias f4 [4]
00000000: f914 80bd 0b49 4d3d 5d1c 893d 4e25 85bd
-0.06254 0.050118487 0.06694863 -0.06501256

act_fc1.weight f4 [100, 400]
00000000: 179b 193d 17c0 363d 5c65 2e3b 7023 a03c
00000010: 4794 803c ec93 fb3b 29ba 173d 4e99 d63c
00000020: e79a 073d 2145 1a3d 15f8 273d cc89 acbb
00000030: 8def bcba bf77 c6bb 64d5 c1bc 58fe 67bc
00000040: b6d3 e6bc 8922 d839 ea5d 0d3d adb0 b93b
00000050: 7ee7 1b3c b246 77bc bfa3 d8bc 87a1 2abd
00000060: 5e8a f3bc c050 4cbd 61f0 10bd ce1e a0bc
00000070: 7e0e ce3b 6f20 24bc cef9 8d3c ed09 dbbb
00000080: f7ec 43bd bb78 8abd 9b1d 83bd 0a1b 0cbd
00000090: e313 22bd 86a8 b7bc 0371 d0bc b6ae 07bc
000000a0: fcce dcbb 4df9 13bd 8d13 38bd d13c d3bc
000000b0: 7a9a b9bd 5e53 a7bd 8813 07bd 8bbe 123c
000000c0: 4eda c33b 5ce3 59bc 8edf 8fbc d81d 03bd
000000d0: 4a90 26bd 5302 67bd 6c2a 6fbd 055d f2bc
000000e0: f1fd 4abd 357a 03bd a686 593c 0cfc 07ba
000000f0: d3c8 ba3b db1b 00bd 027f b3bc 92ec 19bd
00000100: a78a f9bc be24 a8bd 5286 16bd 4c1e dbb9
00000110: 0cfb 8f3b 435e 64bc 3141 883c 73cf 703c
00000120: 4c6d 24bd d77b 4b3c d483 48bc ee00 3abc
00000130: d44e c73c db78 4c3d 1792 7d3c 6019 453b
00000140: 754e 2e3d 4cbd e83d f18b c93b aed1 e1bc
00000150: d77f 81bc 4051 a5bc 2618 09bc 8f94 233c
00000160: b4ea 14bc c6c8 1938 c9df d63c 445a 93bd
00000170: e566 133c 0087 3bbc 4693 40bd 403c 41bc
00000180: 6de5 9e3c 0ece d13c 11ae 40bc 36e1 d5bc
00000190: 3d22 db3c 407f 4a3c 3e53 003c d8b6 36bb
000001a0: a3e7 51bd 0e33 45bc 53f1 13bc b744 aebc
000001b0: bafb abbc 6950 afbb f895 033b 62d6 ba3b
000001c0: 7405 9c3c 8234 b239 f6a8 65bc c8a7 57bc
000001d0: 1af7 f0bc 06f5 00bd 9a9d 5ebd 0e0d bdbc
000001e0: b5ed bebc ebfc dbbc 7648 14bc 73f8 ffbc
000001f0: 895a 0ebd 86c2 32bd 290c 29bd eb4c 89bc
00000200: cb5e 2bbc 9c4b 19bd 48b6 e6bc 311f 1bbd
00000210: a566 27bc 2a70 46bd 3ea3 20bd 19c2 8bbd
00000220: a49c 8fbd c154 5ebb b9e8 0bbd 1d74 abbc
00000230: afc4 18bd dec9 bcbc bcc1 d1bc bb16 03bd
00000240: b187 89bd 9439 10bd 75b2 3dbd 9df4 08bd
00000250: c823 bcbc efa2 283c 2c38 c2bc 013f d0bc
00000260: 1a85 42bd 9263 2fbd c769 1ebd 96d2 54bd
00000270: e0f7 ffbc 06c6 fabc ce3d 8ebc 3f8c 26bd
00000280: fcc0 36ba 5507 c4bb 578d 1cbb b8a1 e0bc
00000290: 3b06 00bd fe4c 7cbd 68b3 4cbd 7220 d4bc
000002a0: fba9 87bb c026 71bb 9b83 993b 841c 833d
000002b0: 0029 663d 4f70 0fbc 483a 54bd b210 fabc
000002c0: 243b febc 8b3c 3b3c 2321 e33b c24e ad3c
000002d0: f339 cf3d c2a5 ec3d c56c 773d 1e85 99bc
000002e0: b3c5 cabc 658a 87bc 01b6 1abd a44b 733b
000002f0: 1da2 113d 695a a73b c177 853e fb72 b03c
00000300: eafb b73c 1208 923c 1865 3fbb bd04 1cbd
00000310: c5aa 28bd 6866 4cbc 45d5 1b3c b498 7b3b
00000320: 8f90 683a dcee 4cbc f1c7 b1bb 6249 113c
00000330: b881 18bd aaa4 e1bc 596f 7cbc 79bf 673c
00000340: 6467 05bd a5db e5bb 43ee c73b 05ba b0bc
00000350: 3da2 2b3b 3213 933c 9130 26bc ba6a a1bc
00000360: 9e17 14bb 2201 65bb 88ee f9b9 8061 9cbc
00000370: bf21 23bc 8923 4ebc 6b07 b7ba 14a1 22bc
00000380: 508a 243c 720d 25ba 5d58 5cbc 456c 9abb
00000390: 9f16 013c bd9a d03b a7e3 e13c 372f 9c3c
000003a0: 9711 08bd 1481 fb3a 3050 6bbc b13e 40bc
000003b0: 1243 2c3c 5707 babb 9226 40bc a7e1 093b
000003c0: 08db 79bc d5c8 cfbb f758 39bc dd98 503c
000003d0: 3378 b4bc 4da8 06bc 819e b4bc 355d a4b9
000003e0: dd63 b6bc efe9 2fbd 4558 25bd 1314 8ebb
000003f0: a1bd 89bc 6ed7 97bc efd7 af3c 7842 cbbc
0.03750142 0.044616785 0.0026610708 0.019548148 0.015695704 0.007677546 0.03704277 0.026196148
0.03310671 0.037663583 0.041008074 -0.00526545 -0.0014414653 -0.0060567553 -0.023661323 -0.014159761
-0.028177124 0.0004122446 0.03451339 0.0056668133 0.009515641 -0.015092539 -0.026445268 -0.04165795
-0.029729065 -0.049881697 -0.035385493 -0.019545939 0.0062883487 -0.010017498 0.01733103 -0.006684533
-0.04783341 -0.06761309 -0.06402131 -0.034205474 -0.039569747 -0.022419225 -0.025444513 -0.0082814
-0.0067385416 -0.036126424 -0.04494052 -0.025785835 -0.09062667 -0.08170198 -0.03297761 0.008956562
0.0059769517 -0.013298836 -0.017562654 -0.032010883 -0.04066495 -0.0563987 -0.058390066 -0.02958537
-0.049558584 -0.032098968 0.013276732 -0.0005187399 0.0057002096 -0.031276565 -0.021911148 -0.037579127
-0.030461622 -0.08210133 -0.03674919 -0.00041793508 0.004393941 -0.013938489 0.016632648 0.014697897
-0.040143296 0.012419662 -0.0122384615 -0.011352761 0.02432958 0.049919944 0.015476725 0.003007494
0.04255529 0.113642305 0.0061507155 -0.027565803 -0.01580803 -0.020180345 -0.008367574 0.00998415
-0.009089161 3.6665027e-05 0.026229756 -0.07194951 0.0089967 -0.011445761 -0.04701545 -0.01179415
0.019396508 0.02561095 -0.011760251 -0.026108366 0.026749725 0.01235944 0.0078323465 -0.002787998
-0.051246297 -0.012036098 -0.009029704 -0.021273 -0.020994056 -0.005350162 0.0020078402 0.005701826
0.019045569 0.00033989927 -0.014017334 -0.013162561 -0.029414702 -0.031483673 -0.05434952 -0.023077514
-0.023306707 -0.026854 -0.009050479 -0.0312464 -0.03475431 -0.043642543 -0.041271362 -0.01676031
-0.010459612 -0.037425622 -0.02816309 -0.037871543 -0.010217343 -0.04844681 -0.03921818 -0.068241306
-0.07012299 -0.003392503 -0.03415749 -0.02092939 -0.037296947 -0.023045477 -0.025605075 -0.0320041
-0.06715334 -0.03521116 -0.046312768 -0.033436406 -0.02296628 0.010292753 -0.023708425 -0.025420668
-0.047490217 -0.042819567 -0.038675096 -0.051958643 -0.031246126 -0.030612003 -0.017363455 -0.040661093
-0.0006971506 -0.0059823194 -0.0023887956 -0.027420864 -0.03125594 -0.061596863 -0.049975783 -0.025894377
-0.0041401363 -0.0036796778 0.004684878 0.06401923 0.056191444 -0.008754804 -0.051813394 -0.03052554
-0.03103406 0.011428009 0.0069314404 0.021155719 0.10118475 0.11555053 0.060406465 -0.018740233
-0.024752473 -0.016545484 -0.03777123 0.0037123943 0.035554994 0.0051072133 0.26067927 0.021539202
0.02245899 0.017826114 -0.0029204544 -0.038090456 -0.041178484 -0.012475587 0.009511297 0.0038390579
0.00088716386 -0.01250812 -0.005425446 0.0088675935 -0.037233084 -0.027544338 -0.015407407 0.014144772
-0.032569304 -0.007014709 0.006101401 -0.021573076 0.002618923 0.017953489 -0.010143415 -0.019704212
-0.0022597085 -0.0034943302 -0.000476707 -0.01908946 -0.009956776 -0.012581714 -0.0013964003 -0.009926099
0.010042742 -0.0006296254 -0.013448802 -0.0047126138 0.007878928 0.0063661025 0.027574373 0.019065483
-0.0332199 0.0019188249 -0.01436238 -0.011733697 0.010514038 -0.0056771445 -0.011727946 0.002103904
-0.015249975 -0.0063410797 -0.011312715 0.012731758 -0.022029972 -0.008218837 -0.022048237 -0.00031349962
-0.022264415 -0.042947706 -0.040367384 -0.004335889 -0.016814055 -0.018535342 0.02146527 -0.024811968

act_fc1.bias f4 [100]
00000000: 445d bbbd 7f5e 91bd 37b7 90bd 7de6 493d
00000010: 82cd 2dbd ac9d 56bd 7d3b 353d 61c9 06bd
00000020: 631a 6cbd 457e b0bd 6530 a9bd d89f 85bd
00000030: e2aa 92bd e1d7 ba3b 1a15 96bd 2fdf 06bd
00000040: 5ebe 0c3d 9473 32bd 67dd e7bc a086 04bd
00000050: 761d b7bd efca b6bd a684 27bd 3389 97bc
00000060: 3cba 15bd d8b3 9abc be59 b8bc f3c8 9cbd
00000070: 5425 b0bc c920 98bd 72c5 3e3d 9223 0a3d
00000080: 870c 553b 5674 173d efcb 163d 4e23 523c
00000090: e566 113d ffcf b13b 13d8 fd3c a403 0c3c
000000a0: 03c1 d2bc 62bb 7fbd 01db f53c 6cdf 213d
000000b0: 2619 c13d 2aee c33d 2a34 463d 6c52 0dbd
000000c0: d655 a2bb d925 babc ff37 8dbd 88e2 a7bc
000000d0: a18b e8bc a4ca 2c3d 1cb2 083e 7242 ad3d
000000e0: 6cf6 203d a774 8bbc 14e9 08bd 68a1 563b
000000f0: 6e72 963c 9cc0 3dbc 25b0 f3bc cd69 073d
00000100: 0d10 a63c aa19 833d 6933 423b af8a 09bd
00000110: 19e3 68bc 85a2 4c3d e411 c6bd 4d59 b5bd
00000120: 0c62 8fbd 011d 453c f727 cb3c 5a2d d93c
00000130: 5071 c93a 1046 8abc 207a 85bd d351 60bd
00000140: 2d52 99bd e73f 65bc 0070 3abd d148 703d
00000150: 1eb7 14bd e1cc 47bd 7884 473d d48e 39bd
00000160: ed29 7bbc f0ef 55bd 3d5a 32bd aec0 35bd
00000170: 742c d7bc acb2 e0bb 4175 73bb 9fce 49bd
00000180: c9fa 233d a43e 7abd 44c8 28bd 0470 8bbd
-0.091486484 -0.07098102 -0.070661955 0.049292076 -0.042432316 -0.05239646 0.044246186 -0.032906894
-0.05764235 -0.08617834 -0.08261184 -0.065246284 -0.071614996 0.0057020043 -0.073282436 -0.03292769
0.034361236 -0.043567255 -0.028303815 -0.03235495 -0.08941166 -0.08925425 -0.040897988 -0.018498039
-0.03655456 -0.018884584 -0.02250373 -0.076555155 -0.021502174 -0.07428128 0.046575017 0.03372533
0.0032508688 0.03697618 0.03681558 0.0128258 0.03549852 0.0054264064 0.030986821 0.00854579
-0.0257268 -0.06243456 0.030011656 0.039519712 0.09428625 0.095669106 0.04838959 -0.03450243
-0.00495408 -0.022723125 -0.06895446 -0.02049376 -0.028386893 0.04218544 0.13349193 0.08459939
0.039297506 -0.017023398 -0.033425406 0.0032750014 0.018365111 -0.011581566 -0.029747078 0.033059884
0.020271325 0.064013794 0.0029632694 -0.033579525 -0.014214301 0.04995968 -0.09671381 -0.088549234
-0.07001123 0.012030841 0.02479933 0.026510883 0.0015368853 -0.016879112 -0.06517434 -0.054765534
-0.07486377 -0.013992286 -0.045516968 0.058663193 -0.036307447 -0.048779372 0.048710316 -0.045302227
-0.01532982 -0.052230775 -0.04354309 -0.044373207 -0.026266314 -0.006857237 -0.0037148746 -0.049269315
0.04003409 -0.061094895 -0.041206613 -0.06808475

val_conv1.weight f4 [2, 128, 1, 1]
00000000: 9170 bcbb 15dc 563d 47fc 353c c21d 0695
00000010: de36 273d 0339 c83b 822f ff37 8078 dc10
00000020: 0ffa 9f3b 3cea 8694 0bbd bc3c edc6 e4bb
00000030: 1cf4 f03c 3b48 ccbc 89ed 7d95 ba90 073d
00000040: 6bbb cf30 327a 84bc ac4a 9214 6893 96bc
00000050: 6ca0 5913 95b4 993b 84c0 703d 6e67 29ba
00000060: 7b39 3716 892b 601b 7271 4916 a8d3 9716
00000070: 6733 41bd 2608 6dbd e112 58bc 0f32 babb
00000080: 0f1b e43b 46f7 97bd b8a2 e6a6 40e1 583b
00000090: f0e3 d93b e29b 1297 1d01 9016 313c 393d
000000a0: 6609 cfbc 99af 7ebd db9b c813 7e58 75bc
000000b0: d816 4eba db06 df94 a3a9 be2d d464 553c
000000c0: ac8d aa3c 4189 099a 249a 3a3d ddc8 3bb7
000000d0: 5218 a6bd dad0 0fbc 5fb1 673b 0d08 dc3c
000000e0: 7fb6 4f3d 2fa4 36bc 5db4 5494 00cd 7d14
000000f0: d6dc 92bd 42e8 5697 c894 4ebd eaff aa16
00000100: e8ca 9bbd db19 c43b e978 063d 61f2 aabc
00000110: a18e 0096 18ef 0c3d 07f9 eb39 3d8e ef3c
00000120: b747 1ebb 6c81 40bb 1fa0 a9bd b07a 90bd
00000130: c3a7 4abb fa3b c41d 48f9 ab14 ad82 5d3d
00000140: 03ec 6531 a0be 3d3c a538 76bb 1862 76bd
00000150: 2e5c 003d 9c1a 2d16 e816 54bb c036 ed91
00000160: 67e8 79bd f8c7 40bc 6871 002c f64e 6e3d
00000170: 1282 51bc d0ce 1d3d 2861 19bd 0018 9096
00000180: 149b 8bbc 5208 cd3b c4bb df95 a7c6 c53b
00000190: fbf9 473b d115 9e16 765f 083c f7bd 13bd
000001a0: fd63 10ba 65f4 b119 addb 05bc 26a2 96bc
000001b0: 7701 43bd 005c 1b96 16c7 713a 9e07 10bc
000001c0: e38a fe3c ccf5 9134 786d 813b ca08 702a
000001d0: c0b8 1d3d 465f b63b 3ede 053b 0031 cba1
000001e0: f49c 7e3c 8adf da3b c795 7796 2a7c 43bd
000001f0: 0457 a53b 2998 80bd 5b77 443b a569 529a
00000200: 8be9 de3e f28b 43be 643d 573d a7ea 3619
00000210: b219 74bc a0c9 193d 3ebc e3ad bc8c 2b14
00000220: 3302 dd3d 55dd f89a 2139 6ebe d02f d63e
00000230: 5b0a abbd 1ce4 5fbd f437 5b9e aac9 0c3d
00000240: ac9a c73c 607d 3bbd 11ba 0595 28f0 8bbb
00000250: ab51 8dbc 5422 ce3d 23f9 68be 2b11 093c
00000260: 4bb0 dcb1 34a8 cd3d e087 883b 578c 1dba
00000270: 7ee5 3ebe cc3b e8bc 176a a33c c0a3 dd3d
00000280: 5d18 0d3e ecf7 f0bc 077e af37 aa34 173d
00000290: 19f3 9a3c cf6d c035 0807 5dbd 071e 6c3d
000002a0: b85f d6bd de94 803b befb de2a a5b5 d93d
000002b0: cd0d 493c 8c56 84bd b58a 8c39 bd0a b43d
000002c0: d898 753d 9ff8 0028 1583 ff3b e8e3 63bb
000002d0: a53f b43d a1e9 c03c baff 263d 5535 553e
000002e0: 2174 52be 6d1b 303e 602f b69f 61a2 0423
000002f0: 05ab 23be 7ca3 a32a c4fa b33d ab47 80b6
00000300: eba9 433d 1aa1 0f3c d404 583d 658d 7dbd
00000310: c60f 7694 e885 0abc b8a7 8bbe b084 033d
00000320: a307 993c b304 8abd a355 b33c ae18 0fbd
00000330: 2500 0ebb 9d96 b83c ba71 b03d e18b aabd
00000340: a480 c7b9 3acd 8c3d 242d 9abd 556b 95bd
00000350: e277 50be 33c2 b816 5871 d512 2c14 5515
00000360: 0213 9b3d 694c 58bc a167 3c33 44af bc3d
00000370: 3e90 4cbc 1da2 7a3c f8e4 9f3e a456 8133
00000380: 2999 8c3d b234 fa3d a72d ea94 b364 bbbb
00000390: 5446 36bd ebee 393a 9925 59bd b1d0 de3d
000003a0: d130 36be f5b6 50ba d2d1 383e d6dd 0b3d
000003b0: 9297 e5bd 7cbb 52bd 9b75 ed3b fc85 b13d
000003c0: cd9a 183d a053 8a3e 1c4a 613e 54f3 54bc
000003d0: 9941 adbb 9d4b 073e 58ed 87bd 9236 1218
000003e0: 5734 243d d103 19b3 0071 0c1a 03f1 903c
000003f0: 3af1 983c cd70 143c 4c6d 6abe 0309 c63a
-0.0057507236 0.05245598 0.011107511 -2.708456e-26 0.04082381 0.006110312 3.0420491e-05 8.696036e-29
0.004882104 -1.3622931e-26 0.023039361 -0.0069817216 0.029413275 -0.024936786 -5.1280325e-26 0.033097006
1.51145e-09 -0.016171549 1.4771685e-26 -0.018380836 2.7468345e-27 0.0046907165 0.058777347 -0.00064622506
1.480076e-25 1.8542913e-22 1.6272448e-25 2.452894e-25 -0.04716816 -0.0578691 -0.013188095 -0.005682237
0.0069612334 -0.074202105 -1.6003561e-15 0.0033093244 0.0066494867 -4.7371896e-25 2.3265157e-25 0.04522342
-0.025273036 -0.06217918 5.0640783e-27 -0.014974711 -0.00078616804 -2.251995e-26 2.1675833e-11 0.013024528
0.020819508 -2.844181e-23 0.045557156 -1.1192836e-05 -0.081101075 -0.008777821 0.0035353524 0.026859308
0.05071115 -0.011147543 -1.0738835e-26 1.2813665e-26 -0.07171027 -6.944028e-25 -0.050434858 2.7626486e-25
-0.07607061 0.0059845275 0.032830153 -0.020867528 -1.0384763e-25 0.034407705 0.00045008233 0.02924263
-0.0024151632 -0.0029374016 -0.08282494 -0.07054651 -0.0030922748 5.1942782e-21 1.7364912e-26 0.0540797
3.3458043e-09 0.011581093 -0.0037570384 -0.060152143 0.03133791 1.3983225e-25 -0.0032362286 -3.742575e-28
-0.06101265 -0.011766426 1.8252847e-12 0.05818077 -0.012787359 0.03852731 -0.03744617 -2.32796e-25
-0.01704172 0.0062570954 -9.0365225e-26 0.006035644 0.003051399 2.5540045e-25 0.008323541 -0.036069836
-0.00055080635 1.8400081e-23 -0.008170051 -0.018387865 -0.04760882 -1.254983e-25 0.00092230865 -0.008790879
0.031072086 2.7187195e-07 0.0039498173 2.1319331e-13 0.03850627 0.0055655567 0.0020426656 -1.3768785e-18
0.01554035 0.00667948 -1.9999762e-25 -0.047725834 0.0050457735 -0.06279022 0.0029978368 -4.351232e-23
0.43537554 -0.19096354 0.05254878 9.456567e-24 -0.014898704 0.0375458 -2.5890508e-11 8.661049e-27
0.10791435 -1.0292798e-22 -0.2326398 0.41833353 -0.083515845 -0.0546609 -1.1605334e-20 0.03437201
0.024365745 -0.045773864 -2.7005917e-26 -0.004270572 -0.017250856 0.10065141 -0.22751288 0.00836591
-6.422885e-09 0.10041848 0.004166588 -0.0006009987 -0.18642232 -0.028348826 0.019948049 0.108222485
0.13778825 -0.029415093 2.0920312e-05 0.03691546 0.018914746 1.4337073e-06 -0.053961784 0.057645824
-0.10467476 0.0039239964 3.9609803e-13 0.10630349 0.012271357 -0.0646182 0.00026806226 0.08791111
0.059960216 7.1593385e-15 0.0077976086 -0.0034773294 0.08801202 0.023548903 0.040771224 0.20821126
-0.20552112 0.17197962 -7.7158374e-20 7.190119e-18 -0.15983208 2.9068057e-13 0.08788064 -3.8230405e-06
0.04776947 0.008766437 0.05273898 -0.061902422 -1.2422937e-26 -0.008454777 -0.27276397 0.032108963
0.0186804 -0.067391776 0.02189142 -0.034935646 -0.0021667567 0.022532756 0.086154416 -0.08327461
-0.00038052083 0.06875081 -0.07528141 -0.072958626 -0.20358232 2.984936e-25 1.3470131e-27 4.303092e-26
0.07571985 -0.013201811 4.386641e-08 0.09213117 -0.012485562 0.01529744 0.31229377 6.0227904e-08
0.068651505 0.12217082 -2.3645969e-26 -0.0057187914 -0.044500664 0.00070927915 -0.05301437 0.108796485
-0.1779206 -0.0007961833 0.1804879 0.034147106 -0.1121055 -0.05144833 0.0072466857 0.086681336
0.037257005 0.27016926 0.22000927 -0.012997467 -0.005287361 0.13212438 -0.066370666 1.8897609e-24
0.040088978 -3.562656e-08 2.9042602e-23 0.017693048 0.018669713 0.009060097 -0.22893256 0.0015108887

val_conv1.bias f4 [2]
00000000: 5196 25bd 2112 943d
-0.040426556 0.0723002
